algo/reinforce/checkpoint.pt (torch_old, 177110 bytes, 33 tensors)

exp_avg_sq f4 [4]
0.058169134 0.056907006 0.056303278 0.05487088
00000000: c242 6e3d 5217 693d 449e 663d 4ac0 603d

exp_avg f4 [4]
-0.04896082 -0.01487995 0.04814022 -0.034067743
00000000: 248b 48bd 09cb 73bc ae2e 453d 9e8a 0bbd

exp_avg_sq f4 [64, 25]
0.00035920847 0.00012246911 5.9256505e-05 0.00038411323 0.00011977459 3.9844246e-05 4.9376777e-06 4.349452e-06
4.4974336e-06 3.7510976e-17 2.5753889e-11 1.9662837e-05 5.481264e-06 2.2168657e-05 6.684503e-08 7.204198e-08
7.0129595e-08 5.7579354e-07 4.1573557e-07 2.8509803e-07 6.85294e-08 7.105575e-08 6.776991e-08 1.3198485e-09
1.4453133e-09 0.00015078009 5.257172e-05 2.7587916e-05 0.00016548308 5.345981e-05 1.6883852e-05 2.1093842e-06
1.7362729e-06 2.415861e-06 1.0518789e-17 7.221876e-12 2.7527278e-05 4.5201514e-06 5.8206875e-05 2.481684e-08
2.898993e-08 3.3536573e-08 1.472623e-07 2.8809285e-07 6.590925e-07 2.5529188e-08 2.7909826e-08 2.9644774e-08
4.4078668e-10 3.7324271e-10 1.3240739e-06 4.3416708e-07 4.8814167e-07 1.6070886e-06 3.2249474e-07 1.6495324e-07
2.2675597e-08 1.2245078e-08 9.708769e-08 7e-43 7e-43 3.4147176e-06 1.0580845e-06 3.4618695e-06
8.2893625e-10 5.15686e-10 2.3184375e-10 1.0205669e-08 1.06766926e-07 2.0751276e-08 3.965832e-10 5.023474e-10
2.9180097e-10 5.084008e-13 1.7407188e-12 6.9259368e-06 2.283838e-06 1.3664912e-06 7.951095e-06 2.1754745e-06
7.587379e-07 1.6517932e-07 5.3239344e-08 2.982151e-07 6.000537e-21 4.1197675e-15 6.5688673e-06 2.3565738e-06
4.686629e-06 1.3601337e-09 9.737199e-10 2.575692e-09 4.580304e-08 6.313331e-08 2.4540713e-08 1.4974518e-09
9.390155e-10 1.5195795e-09 2.2054764e-11 1.6013553e-11 0.0004404288 0.00015119657 7.480817e-05 0.00050209893
0.00014940977 4.9033028e-05 8.614471e-06 5.322926e-06 5.369956e-06 3.5811567e-17 2.458707e-11 1.1214558e-05
2.8445927e-06 1.1963587e-05 8.746853e-08 8.6849795e-08 8.432236e-08 3.1921584e-07 4.6662836e-07 9.2364346e-08
8.733688e-08 8.5501604e-08 8.423746e-08 1.5429568e-09 1.5107016e-09 1.3595104e-12 2.1245577e-13 1.1698276e-13
1.2705611e-12 2.0634117e-13 1.3133548e-13 1.5047614e-15 4.463952e-17 4.1513307e-16 0.0 0.0
5.5589006e-12 5.85554e-13 6.179939e-12 1.4169784e-16 2.451091e-17 1.3629008e-15 4.8923526e-15 1.2347869e-12
3.4054987e-14 5.5857784e-16 2.2306958e-17 2.465362e-16 2.2827644e-17 6.8002247e-20 9.6102456e-05 3.4151482e-05
1.985256e-05 0.00011084656 2.8643675e-05 1.09819075e-05 2.1715553e-06 1.0225797e-06 2.1187807e-06 6.6629762e-18
4.5746e-12 8.443802e-06 1.0800788e-06 1.2568766e-05 2.1591191e-08 2.8727811e-08 3.149698e-08 1.901029e-07
2.9107036e-07 2.8154412e-08 2.1903285e-08 2.1972054e-08 2.3049921e-08 2.901026e-10 2.6595356e-10 8.6396534e-07
2.964692e-07 1.3310097e-07 7.978741e-07 2.7563576e-07 1.0217065e-07 1.0604055e-08 3.4178445e-09 8.568822e-09
0.0 0.0 3.9946744e-06 3.8790768e-07 2.8726633e-06 2.5777813e-10 2.8900018e-10 1.7826046e-10
8.04267e-09 6.3019474e-09 9.551215e-09 1.9052362e-10 2.0505572e-10 9.758701e-11 6.836088e-13 1.202151e-12
0.00016611768 6.298473e-05 3.5291905e-05 0.00022268394 5.754559e-05 2.0212761e-05 6.1949736e-06 1.8036313e-06
3.2421904e-06 3.8986937e-18 2.6767228e-12 4.02866e-05 6.37382e-06 5.292442e-05 3.0878414e-08 3.3496416e-08
4.5187612e-08 1.8066477e-07 2.2409816e-07 7.750327e-07 3.13531e-08 3.201915e-08 3.489711e-08 2.2307567e-10
3.9031303e-10 5.2859923e-05 1.7333294e-05 1.0680453e-05 5.8398684e-05 1.564298e-05 5.5062274e-06 1.4414368e-06
1.2009663e-06 1.8551841e-06 1.8578954e-18 1.2755721e-12 1.1844982e-05 2.315527e-06 9.901566e-06 1.0449191e-08
1.0383613e-08 1.0956545e-08 1.7133169e-07 2.3295952e-07 1.225294e-07 1.05151114e-08 9.540365e-09 1.0634341e-08
9.485085e-11 9.208175e-11 0.00065440027 0.00021120683 0.00012398556 0.0007152599 0.00025801142 7.477706e-05
00000000: 2554 bc39 0d6b 0039 308a 7838 ce62 c939
00000010: 7e2f fb38 6f1e 2738 54ae a536 82f1 9136
00000020: a9e8 9636 25fd 2c24 9a88 e22d 9ff1 a437
00000030: b3eb b736 d4f6 b937 728c 8f33 7fb5 9a33
00000040: 279a 9633 3b90 1a35 4332 df34 930f 9934
00000050: 702a 9333 5097 9833 e788 9133 0a66 b530
00000060: 71a4 c630 b91a 1e39 7480 5c38 996c e737
00000070: 8785 2d39 093a 6038 cca1 8d37 f28e 0d36
00000080: e209 e935 2d20 2236 9409 4223 e018 fe2c
00000090: 61ea e637 ceab 9736 2823 7438 cf2c d532
000000a0: 8805 f932 da09 1033 271f 1e34 2eab 9a34
000000b0: 7eec 3035 474b db32 5bbe ef32 8ca5 fe32
000000c0: 3653 f22f 3e31 cd2f d5b6 b135 7817 e934
000000d0: d708 0335 25b3 d735 5723 ad34 001e 3134
000000e0: 2ac8 c232 6c5e 5232 867e d033 f401 0000
000000f0: f401 0000 6728 6536 8203 8e35 7752 6836
00000100: 34db 6330 2dc0 0d30 37ea 7e2f 0255 2f32
00000110: bd47 e533 8a40 b232 2006 da2f 8e15 0a30
00000120: 566b a02f 231a 0f2b 01fc f42b 5865 e836
00000130: 0a44 1936 4868 b735 b165 0537 5efe 1136
00000140: 12ac 4b35 255c 3134 47a9 6433 5f1a a034
00000150: a2b1 e21d 266e 9427 246a dc36 a125 1e36
00000160: d641 9d36 73ef ba30 b9d3 8530 0e00 3131
00000170: fab8 4433 e793 8733 99cd d232 e7ce cd30
00000180: ac0e 8130 73d9 d030 eafe c12d 51db 8c2d
00000190: 5ae9 e639 858a 1e39 55e2 9c38 4a9f 033a
000001a0: e1aa 1c39 d0a8 4d38 df86 1037 969b b236
000001b0: 922f b436 d626 2524 2945 d82d 2926 3c37
000001c0: bbe5 3e36 37b7 4837 55d6 bb33 2e82 ba33
000001d0: b514 b533 b160 ab34 ea84 fa34 d659 c633
000001e0: f58d bb33 019d b733 09e6 b433 f70f d430
000001f0: 16a1 cf30 8655 bf2b 3534 6f2a fcb5 032a
00000200: cad0 b22b cb51 682a e0de 132a e6db d826
00000210: 0bdd 4d24 d44e ef25 0000 0000 0000 0000
00000220: 2096 c32c 9dd1 242b f16f d92c d25d 2325
00000230: c012 e223 2a6a c426 fd43 b027 e3c7 ad2b
00000240: ba5e 1929 c5ff 2026 d1be cd23 521e 8e25
00000250: 408c d223 d690 a01f 9d8a c938 e03d 0f38
00000260: 0c89 a637 4b76 e838 d347 f037 ef3e 3837
00000270: 09bb 1136 923f 8935 6030 0e36 08d2 f522
00000280: 55f4 a02c daa9 0d37 3af7 9035 70de 5237
00000290: 8877 b932 20c5 f632 4c47 0733 161f 4c34
000002a0: 6844 9c34 35d8 f132 d525 bc32 0fbd bc32
000002b0: 50ff c532 507c 9f2f a335 922f 3feb 6735
000002c0: 6b2a 9f34 84ea 0e34 7e2d 5635 17fb 9334
000002d0: e968 db33 212d 3632 5bdf 6a31 1436 1332
000002e0: 0000 0000 0000 0000 fe09 8636 a041 d034
000002f0: fbc7 4036 0cb7 8d2f 29e1 9e2f dcff 432f
00000300: 092c 0a32 8488 d831 b016 2432 a27b 512f
00000310: 0e76 612f 9a98 d62e 356b 402b 0e30 a92b
00000320: e02f 2e39 ab16 8438 6506 1438 4480 6939
00000330: 1b5d 7138 938e a937 6bde cf36 4d14 f235
00000340: 6894 5936 1fd6 8f22 8d5b 3c2c 68f9 2838
00000350: b2de d536 2afb 5d38 2d9f 0433 b3dd 0f33
00000360: 4e14 4233 c1fc 4134 a29f 7034 d70b 5035
00000370: 19a9 0633 6e85 0933 c7e1 1533 3846 752f
00000380: ad93 d62f e9b5 5d38 f766 9137 3230 3337
00000390: 1cf1 7438 0b39 8337 22c2 b836 6477 c135
000003a0: e330 a135 a4ff f835 a716 0922 5485 b32b
000003b0: cfb9 4637 7364 1b36 e71e 2637 0784 3332
000003c0: 9d63 3232 653b 3c32 4cf7 3734 6d23 7a34
000003d0: a090 0334 f3a5 3432 f8e6 2332 54b2 3632
000003e0: 4894 d02e 6b7d ca2e 0f8c 2b3a 6777 5d39
000003f0: 1f02 0239 4880 3b3a b545 8739 a1d1 9c38

exp_avg f4 [64, 25]
0.0038961517 0.0022867215 0.0017004824 0.004449758 0.0021424561 0.0013235689 0.0005536066 -0.00014426575
-0.0003769134 -1.0475032e-09 8.6795535e-07 -2.9343687e-06 3.7461443e-06 -2.7405806e-06 -1.0398433e-05 3.6919773e-05
-3.71477e-05 -1.5244595e-06 1.3324283e-06 7.215823e-08 1.0482097e-05 -3.6885634e-05 3.7345762e-05 6.8870336e-06
9.73931e-06 0.00082405173 0.0004910209 0.00022562008 0.0005781333 0.00045391652 0.0002561637 -0.00024591872
-3.7104437e-05 3.0543528e-05 -3.0690595e-10 2.5430057e-07 -4.231206e-06 1.8817658e-06 -4.3765162e-06 -6.1542414e-06
6.2341223e-06 -5.4844736e-06 -7.375059e-08 -4.7810994e-07 -2.001006e-08 6.1410647e-06 -6.2329877e-06 5.5152227e-06
4.6582245e-06 -2.3665282e-06 1.4024412e-12 7.888731e-13 1.3652479e-12 2.0658427e-12 8.4893274e-13 6.373709e-13
6.633991e-13 6.005958e-14 -7.278775e-13 6e-45 -6e-45 2.4289104e-12 -5.8000794e-13 -2.7540528e-12
9.6705616e-14 1.1759791e-13 2.3652672e-14 -2.0636749e-13 -5.8570087e-13 1.2385337e-15 -1.1523398e-13 -1.11768586e-13
-1.3984107e-14 4.6126064e-15 -1.6100636e-15 -8.5570736e-07 -6.046861e-07 -1.5394553e-06 -5.266271e-07 9.2821637e-07
-1.4598038e-07 3.2908054e-07 1.5329033e-06 1.3934746e-06 6e-45 -6e-45 -5.833578e-06 7.462757e-06
-5.7419793e-06 1.0617392e-07 1.2100011e-07 3.9681588e-08 7.035253e-09 5.4066962e-08 6.8476567e-09 -1.0382306e-07
-1.2259994e-07 -3.737584e-08 1.7123607e-10 3.1557525e-09 -0.0030169354 -0.002240643 -0.00106099 -0.0032007394
-0.002061148 -0.0010171214 -0.00018380459 0.00017949358 4.3868422e-05 -1.2601706e-09 1.0441709e-06 -1.2227985e-06
5.070217e-06 -1.0709588e-06 -4.0241073e-05 9.558123e-05 -3.238154e-05 -2.5047752e-06 2.4293938e-06 6.215387e-08
4.0387058e-05 -9.552622e-05 3.269665e-05 -1.5229296e-05 -1.1348191e-06 6e-45 6e-45 6e-45
6e-45 6e-45 6e-45 -6e-45 -6e-45 6e-45 0.0 0.0
6e-45 6e-45 -6e-45 -6e-45 -6e-45 6e-45 6e-45 6e-45
6e-45 -6e-45 -6e-45 -6e-45 6e-45 6e-45 0.0030448928 0.0021875435
0.0013229445 0.0035008017 0.0017975065 0.0010888509 0.0004559101 -0.00039003682 -0.00023409359 -5.439638e-10
4.5072542e-07 -3.883202e-06 6.1579954e-06 -3.2885732e-06 -1.292627e-05 -6.0649895e-06 -8.933475e-06 -4.866436e-07
1.3905872e-06 -6.331652e-08 1.30009885e-05 6.0761085e-06 9.027289e-06 3.5560495e-06 2.2110053e-06 2.898078e-07
1.4114048e-07 1.1490175e-07 2.7722206e-07 1.3992596e-07 9.5659544e-08 -1.2585646e-08 -1.2145507e-09 -1.9242176e-08
0.0 0.0 5.882287e-07 -2.921497e-07 5.4254895e-07 3.5990426e-09 4.589399e-09 8.9147145e-10
-8.8623e-10 6.167524e-09 1.941258e-11 -3.4790317e-09 -4.5710493e-09 -7.997287e-10 2.2528708e-10 1.2865387e-10
-0.0010619764 -0.00068102294 -0.00048496618 -0.001307144 -0.0005894493 -0.00037570522 -0.0002451675 9.15739e-05
0.00010926093 -3.1488093e-12 2.609088e-09 1.5141632e-07 2.2902594e-08 -5.9419065e-08 -4.050635e-06 -2.1229056e-05
-3.7176724e-06 5.6764304e-09 2.9710758e-09 4.992809e-10 4.0507307e-06 2.122887e-05 3.7180005e-06 -1.0169567e-06
-7.2211395e-07 -0.0001033373 -1.2437237e-05 -4.914896e-05 -4.1236388e-05 -3.0981005e-06 -2.5488034e-05 6.210076e-05
9.339026e-06 2.3660827e-05 8.0791096e-11 -6.694307e-08 -2.1235173e-06 -2.405571e-06 -1.6205976e-06 6.648013e-06
-1.2571468e-05 6.8536797e-06 3.0865937e-07 -1.5533774e-06 -3.0193185e-08 -6.6969465e-06 1.256312e-05 -6.894835e-06
-4.8037246e-06 9.346221e-07 -0.0001793023 -1.9751693e-05 0.00032866048 -0.00022432489 -3.1223524e-05 6.1031405e-06
00000000: 9456 7f3b d2dc 153b b9e2 de3a 47cf 913b
00000010: 7368 0c3b 9a7b ad3a e91f 113a 0b46 17b9
00000020: 769c c5b9 bef7 8fb0 70fd 6835 12ec 44b6
00000030: 4566 7b36 d1ea 37b6 ee74 2eb7 4eda 1a38
00000040: 0acf 1bb8 089c ccb5 e3d5 b235 68f5 9a33
00000050: 44dc 2f37 a6b5 1ab8 b5a3 1c38 2b17 e736
00000060: 0566 2337 2d05 583a dbb7 003a 6e94 6c39
00000070: de8d 173a a5fb ed39 b64d 8639 a7ee 80b9
00000080: 96a0 1bb8 dd1b 0038 2cb9 a8af ce86 8834
00000090: c8f9 8db6 fb90 fc35 fdd9 92b6 8880 ceb6
000000a0: b42e d136 4507 b8b6 d160 9eb3 7757 00b5
000000b0: 96e2 abb2 580f ce36 f524 d1b6 670f b936
000000c0: d84d 9c36 a5d0 1eb6 4560 c52b 4c0c 5e2b
000000d0: 3d24 c02b ea5e 112c 0df4 6e2b 6a67 332b
000000e0: f1ba 3a2b fe3d 8729 1ae1 4cab 0400 0000
000000f0: 0400 0080 5ceb 2a2c fa41 23ab 9bcc 41ac
00000100: fec2 d929 4a67 042a 590b d528 6159 68aa
00000110: 32dc 24ab d47d b226 efbd 01aa 34ae fba9
00000120: 50ea 7ba8 c92f a627 dd08 e8a6 c3b3 65b5
00000130: b651 22b5 489f ceb5 8a5d 0db5 8b2a 7935
00000140: c8be 1cb4 7cac b034 28be cd35 6c07 bb35
00000150: 0400 0000 0400 0080 0ebe c3b6 9868 fa36
00000160: 3aab c0b6 bb01 e433 42ec 0134 5e6e 2a33
00000170: bdba f131 4137 6833 a048 eb31 55f5 deb3
00000180: 04a4 03b4 2c87 20b3 ab46 3c2f 96dc 5831
00000190: c7b7 45bb c0d7 12bb eb10 8bba 7fc3 51bb
000001a0: 5314 07bb ee50 85ba abbb 40b9 7136 3c39
000001b0: 5cff 3738 5032 adb0 7025 8c35 091f a4b5
000001c0: d520 aa36 ddbd 8fb5 86c8 28b8 c872 c838
000001d0: 6ad1 07b8 b617 28b6 ab08 2336 7479 8533
000001e0: 4665 2938 4055 c8b8 c323 0938 5481 7fb7
000001f0: 1650 98b5 0400 0000 0400 0000 0400 0000
00000200: 0400 0000 0400 0000 0400 0000 0400 0080
00000210: 0400 0080 0400 0000 0000 0000 0000 0000
00000220: 0400 0000 0400 0000 0400 0080 0400 0080
00000230: 0400 0080 0400 0000 0400 0000 0400 0000
00000240: 0400 0000 0400 0080 0400 0080 0400 0080
00000250: 0400 0000 0400 0000 d38c 473b e45c 0f3b
00000260: a766 ad3a b56d 653b 4f9a eb3a c6b7 8e3a
00000270: 3807 ef39 db7d ccb9 0577 75b9 0d86 15b0
00000280: 3bfb f134 744c 82b6 c7a0 ce36 42b1 5cb6
00000290: e8dd 58b7 dd81 cbb6 fce0 15b7 e5a1 02b5
000002a0: 36a4 ba35 a0f8 87b3 d21e 5a37 60e1 cb36
000002b0: e973 1737 77a4 6e36 c860 1436 e196 9b34
000002c0: 668c 1734 e8bf f633 1cd5 9434 8e3e 1634
000002d0: 646d cd33 4238 58b2 34ed a6b0 fe49 a5b2
000002e0: 0000 0000 0000 0000 c5e6 1d35 c0d8 9cb4
000002f0: aea3 1135 0753 7731 c8b0 9d31 ba0b 7530
00000300: e49a 73b0 1dea d331 3ec1 aa2d c613 6fb1
00000310: 600f 9db1 e8d3 5bb0 adb4 772f d874 0d2f
00000320: 0432 8bba ad86 32ba 0f43 feb9 7954 abba
00000330: 4685 1aba 4dfa c4b9 d389 80b9 5d0b c038
00000340: 0423 e538 e893 5dac 904b 3331 0095 2234
00000350: 56bb c432 f433 7fb3 b1ea 87b6 0d15 b2b7
00000360: 207d 79b6 690a c331 b82b 4c31 c53d 0930
00000370: 83eb 8736 a714 b237 c382 7936 5e7e 88b5
00000380: 4bd7 41b5 cab6 d8b8 87a9 50b7 4b25 4eb8
00000390: 3cf5 2cb8 f6e8 4fb6 23cf d5b7 173c 8238
000003a0: d0ae 1c37 3d7b c637 58a9 b12e 58c2 8fb3
000003b0: c081 0eb6 656f 21b6 4f83 d9b5 ff11 df36
000003c0: 0bea 52b7 a9f8 e536 d2b5 a534 a47d d0b5
000003d0: c2ad 01b3 55b6 e0b6 31c6 5237 2f5a e7b6
000003e0: ae2f a1b6 bee2 7a35 1803 3cb9 70b0 a5b7
000003f0: 1050 ac39 c138 6bb9 01f6 02b8 94c9 cc36

exp_avg_sq f4 [64]
0.00032651523 1.1022732e-07 0.00022125761 5.2234136e-06 3.4822453e-05 4.735925e-21 8.784448e-06 0.00039745885
0.00078397145 0.0008066928 0.00029487832 0.00039340105 5.301731e-07 0.00031497766 0.00057338795 2.3177175e-07
8.903606e-07 0.0001530444 0.000114880655 2.0264547e-08 6.5848364e-12 1.7783384e-21 9.4881125e-06 0.000439899
0.00033511617 0.00045563778 6.8796126e-06 4.8286995e-07 0.0002320462 3.6343008e-05 2.3319208e-07 0.0007016389
0.0 9.505324e-06 5.2134656e-08 7.675173e-06 0.00072847534 0.0006099441 4.1283083e-06 9.123243e-05
4.4499524e-07 1.0826142e-06 0.00037391676 0.00066856726 0.00078795734 1.1824198e-08 5.0373325e-20 0.00015615397
0.0002357511 2.4393677e-07 1.04116815e-07 0.00011136061 0.0003363749 0.0004316788 0.0004621469 2.4714216e-05
0.0003293069 1.0349042e-06 1.6170182e-08 0.00093738444 8.921608e-06 0.000588997 4.3676687e-06 4.954473e-32
00000000: 2230 ab39 1cb6 ec33 6301 6839 c844 af36
00000010: 530e 1238 0eeb b21d eb60 1337 0662 d039
00000020: 6f83 4d3a 3d78 533a e699 9a39 6541 ce39
00000030: 3851 0e35 9623 a539 6a4f 163a efdc 7834
00000040: 1d01 6f35 8b7a 2039 15ec f038 3612 ae32
00000050: efae e72c 115e 061d 222f 1f37 3fa2 e639
00000060: 88b2 af39 abe2 ee39 6cd7 e636 929e 0135
00000070: 6d51 7339 026f 1838 5a63 7a34 31ee 373a
00000080: 0000 0000 0e79 1f37 a9ea 5f33 9ec4 0037
00000090: 27f7 3e3a a8e4 1f3a e685 8a36 0a54 bf38
000000a0: aee7 ee34 574e 9135 420a c439 ca42 2f3a
000000b0: ec8e 4e3a 5f23 4b32 9de1 6d1f 43bd 2339
000000c0: f433 7739 6af6 8234 d396 df33 468a e938
000000d0: 7a5b b039 f352 e239 4f4c f239 6051 cf37
000000e0: d3a6 ac39 0ae7 8a35 9be6 8a32 ceba 753a
000000f0: 04ae 1537 eb66 1a3a fd8d 9236 1fa0 800b

exp_avg f4 [64]
0.0056570494 3.21614e-17 -0.002762823 2.7186522e-06 -0.001029377 6e-45 1.2996918e-08 -9.449217e-06
0.0036519486 0.0032289668 0.003661296 0.00071378925 -1.8596401e-13 0.0021436054 0.0033222248 6e-45
9.34234e-25 5.5542583e-05 0.0018492928 8.5787754e-32 6e-45 6e-45 -9.953852e-09 -0.002897555
0.0031964765 -6.941425e-05 -2.6877078e-06 9.3537117e-14 0.005564752 9.831209e-06 3.0009087e-31 -0.005067343
0.0 2.867697e-07 1.0184869e-31 2.5723354e-08 0.0013754085 -0.0030310669 4.152731e-05 0.001514028
6e-45 6e-45 0.0022191335 0.006187222 -0.0045247227 -1.781e-42 6e-45 0.0015218396
-0.0010101472 -2.8023258e-14 3.42621e-24 -0.0004927963 -0.0012251575 0.0039427313 0.0067064078 3.7231345e-08
0.0049252165 1.4961137e-05 4.8359454e-17 0.0014007855 6.3587645e-06 0.0031412714 9.759249e-07 -6e-45
00000000: c55e b93b 7b51 1424 7a10 35bb 1772 3636
00000010: 29ec 86ba 0400 0000 0d49 5f32 1488 1eb7
00000020: 8855 6f3b 139d 533b 5bf2 6f3b 961d 3b3a
00000030: 7a60 51aa bb7b 0c3b afb9 593b 0400 0000
00000040: d290 9017 65f6 6838 f863 f23a beb7 de0b
00000050: 0400 0000 0400 0000 8101 2bb2 e8e4 3dbb
00000060: fa7b 513b 7e92 91b8 785e 34b6 7aa0 d229
00000070: 8658 b63b b9f0 2437 26c5 c20c f40b a6bb
00000080: 0000 0000 54f5 9934 0835 040c 41f6 dc32
00000090: 0d47 b43a dda4 46bb 9c2d 2e38 5972 c63a
000000a0: 0400 0000 0400 0000 e26e 113b 2ebe ca3b
000000b0: 2044 94bb f704 0080 0400 0000 7778 c73a
000000c0: ea66 84ba 3c69 fca8 8a8b 8418 002f 01ba
000000d0: 7795 a0ba 0732 813b 6dc1 db3b 4ce8 1f33
000000e0: b663 a13b 9801 7b37 c404 5f24 909a b73a
000000f0: 5f5d d536 cadd 4d3b 86fc 8235 0400 0080

exp_avg_sq f4 [64, 64]
0.00012338685 3.7186072e-09 5.073432e-05 1.8388819e-07 1.5469452e-06 6.0358583e-25 7.9083755e-08 0.00018237905
7.464713e-05 6.0823037e-05 3.5542063e-05 2.7435948e-05 1.89904e-09 5.2893092e-06 6.2166646e-06 3.3568215e-10
1.3699419e-09 8.2008046e-05 3.6393742e-06 7.371951e-14 1.8905834e-13 8.445581e-27 1.7133424e-06 4.788787e-06
9.138499e-05 6.2631174e-05 2.1606297e-07 8.964243e-09 1.16379e-06 3.2282762e-06 3.2763856e-09 1.641377e-05
0.0 9.1184546e-07 4.061624e-10 4.181758e-06 4.0592542e-05 7.2109506e-05 6.5522516e-07 1.7930181e-06
8.086421e-10 1.7517236e-08 2.1507853e-05 7.491667e-05 1.561586e-05 3.5291278e-10 2.806067e-28 1.0318026e-05
7.944008e-05 7.994567e-09 4.4342263e-09 0.000117671145 2.7444557e-06 5.289602e-05 7.674371e-05 5.9206386e-06
4.7690097e-05 1.3161892e-08 6.470215e-10 3.7465823e-05 1.4676493e-06 5.0892068e-05 8.563962e-08 0.0
1.389549e-09 4.2544115e-28 4.3606144e-10 4.8894655e-10 1.2776502e-09 7.9367234e-30 9.059711e-25 1.1806693e-09
3.8582013e-09 6.4584366e-10 3.6381884e-10 6.787471e-23 1.5040183e-31 1.4101013e-11 1.08042e-22 1.849994e-33
6.6059636e-22 2.4454698e-27 9.529523e-10 1.6756756e-34 6.148775e-36 8.167811e-32 5.4051023e-33 7.113523e-24
6.8714273e-10 3.309188e-09 1.15007424e-23 2.2557e-34 1.0733797e-29 7e-43 3.3146786e-29 1.0963569e-24
0.0 9.8600994e-26 1.0147422e-27 3.4502816e-28 1.8815359e-11 1.6337456e-11 7e-43 5.635349e-10
6.6840695e-32 2.529448e-29 1.1184647e-09 6.303991e-10 2.5417606e-12 2.2895637e-31 7e-43 2.5144696e-28
4.3200915e-11 6.5126525e-28 5.933947e-30 1.0675285e-09 6.2371154e-12 2.6752272e-09 5.048432e-09 1.1199764e-30
4.7457367e-09 3.5064422e-28 5.712403e-29 1.8367856e-11 2.3923006e-11 8.292547e-30 3.689996e-34 0.0
5.9138524e-06 1.1010485e-09 4.2904785e-06 2.6459774e-11 1.6900163e-09 2.1723121e-31 3.7255965e-08 6.0443745e-06
6.1197916e-06 1.6958973e-06 1.7663082e-06 1.3188252e-06 2.0707602e-11 3.6426061e-07 1.14262235e-07 1.6679348e-10
2.8991868e-26 2.9482192e-06 9.712049e-08 1.1618124e-20 6.8344344e-15 7.5512157e-25 1.511969e-07 6.595929e-08
1.7583301e-06 2.029306e-06 4.5733346e-09 2.4039781e-09 1.0335784e-07 2.6278403e-07 1.1076354e-17 6.229036e-07
0.0 1.2416385e-07 6.2295086e-10 2.9794995e-07 2.7017015e-06 3.0810106e-06 4.3543977e-08 7.351329e-08
4.4579582e-10 2.2091032e-11 2.363932e-06 1.2530309e-06 2.0962727e-06 4.1760717e-36 2.745654e-24 4.4855278e-07
5.257963e-06 3.5081897e-09 1.2069612e-11 5.75442e-06 2.5325616e-07 3.4606317e-06 1.8391878e-06 4.0705706e-07
5.0348484e-07 4.323813e-09 4.6706735e-29 4.429523e-06 1.586876e-07 2.9819723e-06 1.8108047e-08 4.959619e-33
8.40187e-07 3.0365454e-28 3.0062452e-07 5.223547e-08 4.6055317e-07 1.8855517e-27 4.9886145e-28 8.9228337e-07
1.1562819e-06 3.9810075e-07 8.066909e-07 4.486432e-08 4.9733994e-27 1.4895882e-08 1.0807743e-08 6.1818187e-30
4.862639e-10 1.7570656e-08 3.9121926e-07 1.0446096e-31 8.403969e-35 3.4666625e-29 6.717581e-28 1.1250302e-25
8.133454e-07 1.4746803e-06 1.2532803e-25 2.2165742e-33 4.069658e-09 2.2998837e-11 4.9566325e-28 8.7136624e-11
0.0 4.7602197e-27 5.5241877e-30 9.719699e-16 9.578735e-09 9.150392e-08 6.937347e-31 5.1769075e-07
3.5512793e-28 1.4690169e-29 7.783741e-07 8.8907996e-07 3.6852712e-09 3.2263705e-29 3.3946e-41 1.8852374e-08
1.18340346e-07 4.1281292e-28 4.2071737e-28 8.0856955e-07 1.4738177e-08 1.2391391e-06 2.442417e-06 1.1542381e-27
3.2383339e-06 8.541676e-27 1.9131615e-28 2.630202e-08 1.4097503e-08 7.56515e-07 3.1088028e-09 0.0
00000000: 6861 0139 6e8a 7f31 90cb 5438 cd72 4534
00000010: a2a0 cf35 ffcc 3a17 c1d4 a933 013d 3f39
00000020: df8b 9c38 3d1c 7f38 0013 1538 4026 e637
00000030: 4480 0231 d27a b136 be98 d036 108b b82f
00000040: 8c48 bc30 bcfb ab38 f93b 7436 6700 a629
00000050: 5bdc 542a 2f48 2714 fff5 e535 5eaf a036
00000060: f1a5 bf38 db58 8338 f0fe 6734 2801 1a32
00000070: 8533 9c35 5da5 5836 c926 6131 4db0 8937
00000080: 0000 0000 8bc5 7435 474a df2f 0751 8c36
00000090: e941 2a38 7f39 9738 bbe2 2f35 a2a7 f035
000000a0: 2147 5e30 cf78 9632 c36b b437 951c 9d38
000000b0: cefe 8237 0f04 c22f 0adb b111 961b 2d37
000000c0: 1199 a638 7a58 0932 de5b 9831 37c6 f638
000000d0: 642d 3836 abdc 5d38 77f1 a038 e6a9 c636
000000e0: da06 4838 9d1e 6232 17da 3130 9f24 1d38
000000f0: 0cfc c435 f174 5538 e1e8 b733 0000 0000
00000100: 69fa be30 e3d3 0612 31ba ef2f 8e66 0630
00000110: 5299 af30 d3f9 200f 3631 8c17 1c45 a230
00000120: 1991 8431 3587 3130 f302 c82f 691c a41a
00000130: 953b 430c 5111 782d 619d 021b 05b1 1909
00000140: 2ba7 471c 05c0 4113 07f9 8230 49bc 5e07
00000150: 1ec5 0205 6a0c d40b e884 e009 7698 0919
00000160: 5fe1 3c30 da67 6331 eb74 5e19 bfea 9507
00000170: 0fb5 590f f401 0000 fd12 2810 2ca7 a917
00000180: 0000 0000 ce1f f415 d5ca a012 05b0 da11
00000190: 6c80 a52d aeb4 8f2d f401 0000 3ee7 1a30
000001a0: 4387 ad0b 1d42 0010 7ab8 9930 6548 2d30
000001b0: 4adc 322c e799 940c f401 0000 9a5f 9f11
000001c0: e8ff 3d2e ea64 4e12 a1b5 f00e 52b8 9230
000001d0: f172 db2c 18d7 3731 7a76 ad31 00ba b50d
000001e0: f10f a331 473f de11 9dd3 9010 bc90 a12d
000001f0: d26d d22d 5e31 280f 073e f507 0000 0000
00000200: 9b6f c636 b353 9730 eef6 8f36 1dbe e82d
00000210: 2a46 e830 bafd 8c0c 5e03 2033 c8d0 ca36
00000220: 9c58 cd36 969e e335 e311 ed35 7d02 b135
00000230: 6025 b62d 998f c334 5460 f533 3164 372f
00000240: 8f8f 0f15 05da 4536 8e90 d033 cd75 5b1e
00000250: 883c f627 e5b2 6917 b058 2234 81a5 8d33
00000260: c3ff eb35 362f 0836 7a23 9d31 3b33 2531
00000270: 93f5 dd33 c314 8d34 9a52 4c23 9c35 2735
00000280: 0000 0000 e651 0534 453c 2b30 eef5 9f34
00000290: e14e 3536 5cc3 4e36 1c05 3b33 5cde 9d33
000002a0: 2f14 f52f 9550 c22d 0ba4 1e36 d02d a835
000002b0: b1ad 0c36 65a1 b104 486f 5418 a0d0 f034
000002c0: 8f6d b036 ba14 7131 b354 542d 1716 c136
000002d0: 43f7 8734 333d 6836 03da f635 7f89 da34
000002e0: 3727 0735 a990 9431 cfd4 6c10 50a1 9436
000002f0: b763 2a34 e51d 4836 048c 9b32 b703 ce09
00000300: 3689 6135 c476 c011 8565 a134 8259 6033
00000310: f241 f734 8863 1513 7318 1e12 3f85 6f35
00000320: 8b31 9b35 8dba d534 608b 5835 d7b0 4033
00000330: 4304 c513 c8e8 7f32 f5ac 3932 adc3 fa0e
00000340: c8a9 0530 48ee 9632 c408 d234 1c99 070c
00000350: 736a df06 dac7 2f10 7ee3 5412 a145 0b16
00000360: ac54 5a35 a1ed c535 0a26 1b16 5225 3809
00000370: 17d5 8b31 c74c ca2d fb14 1d12 8f9d bf2e
00000380: 0000 0000 5d92 bc13 7216 e00e 5c13 8c26
00000390: b98f 2432 d080 c433 3921 610d 70f7 0a35
000003a0: cd16 e111 dcf9 940f 76f1 5035 1ca9 6e35
000003b0: fa3f 7d31 af98 2310 a15e 0000 cff0 a132
000003c0: 4b22 fe33 5dd3 0212 a654 0512 7a0c 5935
000003d0: 3033 7d32 7f50 a635 68e8 2336 76e5 b612
000003e0: 2752 5936 712f 2914 a485 7211 c1ee e132
000003f0: 7931 7232 5113 4b35 a3a2 5531 0000 0000

exp_avg f4 [64, 64]
0.0032651934 5.873979e-18 0.0017097314 6.93941e-07 7.2900607e-06 -6e-45 -9.903584e-11 0.0037097365
0.0026973737 0.0020935151 0.0011932676 0.0014279686 -7.4252975e-15 0.00020573166 0.0010529226 6e-45
2.5377115e-26 0.0027925766 6.50795e-05 6.640597e-35 -6e-45 6e-45 -6.424949e-09 0.00023491913
0.002688677 0.0021540446 4.6607674e-08 1.6238837e-15 0.0003334233 -1.3550621e-06 2.5312237e-32 0.0010223422
0.0 -8.967667e-09 -9.733012e-33 -2.924998e-08 0.0020471674 0.0028045785 8.971169e-08 1.4669602e-05
6e-45 -6e-45 0.0013444846 0.0019176817 0.000892661 1.1397e-41 -6e-45 -2.492996e-05
0.002233394 7.589431e-15 9.146022e-25 0.0029082384 0.00030139548 0.0024908672 0.002587781 -4.3634294e-08
0.0016595919 1.5913096e-07 2.2220786e-18 0.0022223645 -2.4137623e-07 0.0021206306 -9.023468e-08 0.0
2.3227e-41 -6e-45 1.3011e-41 1.3778e-41 2.2272e-41 6e-45 -6e-45 2.1409e-41
3.8702e-41 1.5833e-41 1.1886e-41 -6e-45 -6e-45 2.339e-42 6e-45 6e-45
-6e-45 -6e-45 1.9234e-41 6e-45 6e-45 6e-45 6e-45 -6e-45
1.6334e-41 3.5844e-41 -6e-45 6e-45 -6e-45 6e-45 -6e-45 -6e-45
0.0 -6e-45 6e-45 -6e-45 2.702e-42 2.517e-42 -6e-45 1.4791e-41
6e-45 6e-45 2.0839e-41 1.5644e-41 9.92e-43 6e-45 -6e-45 -6e-45
4.095e-42 -6e-45 6e-45 2.0358e-41 1.557e-42 3.2228e-41 4.4273e-41 6e-45
4.2923e-41 6e-45 -6e-45 2.67e-42 3.046e-42 6e-45 6e-45 0.0
-0.0002942384 1.1813426e-25 -0.00020334161 6e-45 -1.3267707e-11 -6e-45 -3.3929246e-14 -0.00026380763
-0.00020611403 -0.00014345185 -0.00016090072 -7.0856106e-05 6e-45 -5.2929758e-05 -3.7068665e-05 6e-45
-6e-45 -0.000222252 -6.085631e-07 6e-45 6e-45 6e-45 4.350188e-09 1.4477325e-06
-0.00016684204 -0.0001417824 4.3184208e-08 -1.8129842e-15 -7.569636e-05 1.1555228e-06 -6e-45 -4.853374e-05
0.0 5.6117986e-09 9.9096e-33 2.0716872e-08 -0.0001478634 -0.00018650602 2.1435689e-09 -3.7399284e-05
6e-45 6e-45 -0.00020203264 -0.00014573536 -7.1990355e-05 6e-45 6e-45 -3.2643163e-07
-0.0003219505 -7.162869e-15 -3.3207288e-26 -0.00021886894 -2.4372378e-06 -0.0001983205 -0.00018503492 2.633119e-08
-8.714419e-05 -2.3383954e-07 6e-45 -0.00023798109 1.08553095e-08 -0.00022635478 -5.691756e-16 -6e-45
-5.2436335e-06 -6e-45 -3.6827967e-06 -3.9590725e-07 -1.9187585e-06 -6e-45 6e-45 -5.528659e-06
-3.1379548e-06 -3.5293128e-06 -4.193904e-06 -2.6863408e-06 6e-45 -3.3366754e-07 -1.1715626e-06 -6e-45
-2.4994137e-32 -1.550459e-06 -3.2153814e-06 6e-45 6e-45 6e-45 6e-45 -6e-45
-5.8324454e-06 -5.7031925e-06 -6e-45 6e-45 -8.450103e-07 5.3104156e-26 -6e-45 9.355704e-23
0.0 -6e-45 6e-45 6e-45 -1.0092673e-06 -2.75463e-06 6e-45 -1.752385e-06
-6e-45 -6e-45 -3.5388944e-06 -4.5973375e-06 -1.414289e-07 6e-45 -6e-45 -1.7244631e-06
-2.4853996e-06 6e-45 6e-45 -4.7639596e-06 -3.8996214e-07 -6.172504e-06 -6.748869e-06 6e-45
-8.292813e-06 6e-45 -6e-45 -1.9291806e-06 -8.0863066e-07 -7.376029e-06 -1.1780757e-07 0.0
00000000: dbfc 553b 2ab6 d822 1119 e03a 4347 3a35
00000010: 259d f436 0400 0080 39c8 d9ae 0d1f 733b
00000020: 6cc6 303b 5b33 093b 6b67 9c3a ad2a bb3a
00000030: 24c3 05a8 acb9 5739 3802 8a3a 0400 0000
00000040: a152 fb14 a903 373b 4a7b 8838 9089 b006
00000050: 0400 0080 0400 0000 73c2 dcb1 a054 7639
00000060: 8434 303b df2a 0d3b ae2d 4833 bc06 ea26
00000070: 51cf ae39 94df b5b5 bc6d 030b 1d00 863a
00000080: 0000 0000 3710 1ab2 9125 4a8a 6341 fbb2
00000090: c529 063b 05cd 373b 86a7 c033 761d 7637
000000a0: 0400 0000 0400 0080 6b39 b03a b85a fb3a
000000b0: 7701 6a3a c51f 0000 0400 0080 ae20 d1b7
000000c0: 225e 123b 13b8 0828 2087 8d17 2598 3e3b
000000d0: 9e04 9e39 d13d 233b c397 293b 6a68 3bb3
000000e0: aa86 d93a 96dd 2a34 e1f5 2322 17a5 113b
000000f0: 7f96 81b4 47fa 0a3b 0ac7 c1b3 0000 0000
00000100: bf40 0000 0400 0080 4524 0000 6826 0000
00000110: 163e 0000 0400 0000 0400 0080 ae3b 0000
00000120: e36b 0000 232c 0000 2221 0000 0400 0080
00000130: 0400 0080 8506 0000 0400 0000 0400 0000
00000140: 0400 0080 0400 0080 9e35 0000 0400 0000
00000150: 0400 0000 0400 0000 0400 0000 0400 0080
00000160: 882d 0000 eb63 0000 0400 0080 0400 0000
00000170: 0400 0080 0400 0000 0400 0080 0400 0080
00000180: 0000 0000 0400 0080 0400 0000 0400 0080
00000190: 8807 0000 0407 0000 0400 0080 3b29 0000
000001a0: 0400 0000 0400 0000 173a 0000 9c2b 0000
000001b0: c402 0000 0400 0000 0400 0080 0400 0080
000001c0: 6a0b 0000 0400 0080 0400 0000 c038 0000
000001d0: 5704 0000 d759 0000 6a7b 0000 0400 0000
000001e0: a777 0000 0400 0000 0400 0080 7107 0000
000001f0: 7e08 0000 0400 0000 0400 0000 0000 0000
00000200: 0244 9ab9 3e3e 1216 1938 55b9 0400 0000
00000210: 7168 69ad 0400 0080 c2cd 18a9 a94f 8ab9
00000220: 5020 58b9 906b 16b9 75b7 28b9 9598 94b8
00000230: 0400 0000 e500 5eb8 2d7a 1bb8 0400 0000
00000240: 0400 0080 510c 69b9 235c 23b5 0400 0000
00000250: 0400 0000 0400 0000 a978 9531 b64f c235
00000260: 52f2 2eb9 6cab 14b9 8a79 3933 a8a3 02a7
00000270: 2dbf 9eb8 7617 9b35 0400 0080 b590 4bb8
00000280: 0000 0000 e7d1 c031 79d0 4d0a e2f4 b132
00000290: c70b 1bb9 d490 43b9 104e 1331 2ddd 1cb8
000002a0: 0400 0000 0400 0000 b9d8 53b9 8ad0 18b9
000002b0: 87f9 96b8 0400 0000 0400 0000 6c40 afb4
000002c0: 77cb a8b9 e708 01a8 3d6f 2495 2f80 65b9
000002d0: 6d8f 23b6 41f4 4fb9 ef05 42b9 e62e e232
000002e0: 2ec1 b6b8 5315 7bb4 0400 0000 908a 79b9
000002f0: 287e 3a32 a659 6db9 bf0d 24a6 0400 0080
00000300: 78f2 afb6 0400 0080 f725 77b6 148d d4b4
00000310: 05c4 00b6 0400 0080 0400 0000 d282 b9b6
00000320: a795 52b6 22d9 6cb6 5cb9 8cb6 fc46 34b6
00000330: 0400 0000 eb22 b3b4 963e 9db5 0400 0080
00000340: e8c6 018b 5e19 d0b5 d5c7 57b6 0400 0000
00000350: 0400 0000 0400 0000 0400 0000 0400 0080
00000360: 53b4 c3b6 0d5e bfb6 0400 0080 0400 0000
00000370: aad4 62b5 c27a 8315 0400 0080 0135 e21a
00000380: 0000 0000 0400 0080 0400 0000 0400 0000
00000390: 2976 87b5 2fdc 38b6 0400 0000 7d33 ebb5
000003a0: 0400 0080 0400 0080 be7d 6db6 d442 9ab6
000003b0: aedb 17b4 0400 0000 0400 0080 1a74 e7b5
000003c0: d7ca 26b6 0400 0000 0400 0000 1ada 9fb6
000003d0: fd5b d1b4 681d cfb6 5874 e2b6 0400 0000
000003e0: 5c21 0bb7 0400 0000 0400 0080 1277 01b6
000003f0: ad10 59b5 9b7f f7b6 66fd fcb3 0000 0000

exp_avg_sq f4 [64, 64]
4.9581917e-21 1.3927808e-28 1.0555767e-19 2.178448e-28 6.415626e-29 1.1695099e-24 4.5711127e-25 0.0
4.9522423e-17 1.2495787e-32 3.6495232e-17 4.259295e-19 5.3099857e-29 5.8333455e-33 1.8262442e-19 1.9215406e-17
5.440275e-31 2.4421546e-24 5.937137e-37 2.9372892e-23 1.6178909e-36 7e-43 1.31321416e-17 7e-43
5.447403e-22 3.355e-42 2.2273614e-18 1.2880305e-16 4.8998672e-17 7e-43 2.2817314e-34 7e-43
4.144629e-33 2.1590387e-16 0.0 6.670122e-17 7.3583373e-17 1.7572352e-17 3.0845536e-20 5.6094107e-23
1.8902694e-22 1.8830011e-21 2.6441232e-22 3.0362576e-24 8.569517e-20 1.8188957e-18 1.0674951e-23 1.0773741e-29
4.576482e-39 2.71928e-40 6.89104e-23 7.535637e-36 3.2284847e-18 1.7392973e-26 3.2049187e-22 6.005009e-27
1.0274224e-17 1.3975687e-24 5.099806e-18 1.077054e-23 1.9448673e-23 1.3327592e-29 3.0197803e-17 2.4284463e-23
3.0220204e-09 1.313645e-27 8.0761596e-13 3.070926e-27 5.794642e-29 9.0594615e-10 2.0515777e-22 0.0
5.2072988e-08 2.0534216e-30 1.3444631e-07 4.2339714e-09 1.1705196e-27 5.62885e-30 8.1159995e-10 2.7768595e-08
2.4532905e-28 2.5982337e-25 1.1258697e-14 1.1124745e-18 1.0469152e-30 7e-43 7.458806e-10 7.1983283e-32
7.7316646e-11 3.8712e-41 1.3973078e-09 1.3314718e-07 4.8787918e-08 6.852233e-25 1.498117e-36 9.1061703e-32
1.0251461e-34 3.793511e-07 0.0 7.479835e-08 6.899417e-08 9.88029e-09 5.4575975e-09 4.9669576e-15
3.5723554e-16 3.6297096e-16 2.0131225e-11 3.7203942e-13 9.625188e-11 3.618378e-13 1.2284014e-24 9.720206e-30
2.0328886e-29 1.2781668e-30 8.9318594e-14 8.350277e-37 2.87523e-08 1.9525674e-16 8.3261016e-11 7.120917e-25
4.4719046e-09 1.8796507e-23 5.0307354e-09 4.306766e-24 1.4070016e-17 1.2038198e-29 2.7392499e-08 2.3774574e-10
1.693195e-39 0.0 9.9989526e-33 4.4536108e-36 1.01891e-40 7.701905e-39 0.0 0.0
3.256807e-29 0.0 4.8193294e-30 5.681787e-34 7e-43 0.0 6.1516547e-33 1.18140304e-29
0.0 0.0 6.292184e-36 1.6158551e-33 0.0 0.0 1.7111856e-30 0.0
5.687254e-35 0.0 3.9746943e-31 1.8513226e-29 1.6998865e-30 0.0 0.0 7e-43
0.0 1.5211402e-28 0.0 5.145644e-30 1.3289756e-29 2.1656273e-31 6.091618e-32 1.1924011e-29
6.3518903e-34 1.2123587e-31 7e-43 0.0 0.0 4.5988228e-38 0.0 1.1754201e-37
7e-43 0.0 6.2816195e-30 7e-43 1.5455203e-31 6.240179e-37 2.472184e-32 7e-43
0.0 2.3542679e-31 4.108033e-30 3.0822484e-29 0.0 0.0 1.8758267e-29 1.0906315e-31
0.00016788243 6.4899934e-16 2.5542124e-07 1.1747453e-09 2.082461e-08 0.00010060811 5.6194608e-11 0.0
2.7949358e-05 2.8018707e-08 0.00038009477 7.0513845e-05 7.859847e-24 3.9577133e-09 6.901602e-06 3.6940994e-05
0.0 7e-43 9.278903e-13 2.3525668e-05 6.3536505e-15 1.9917026e-10 2.3962745e-09 9.024297e-32
3.6973806e-06 7e-43 1.411907e-07 0.0001579138 8.888287e-06 3.4937025e-12 7e-43 2.241723e-11
0.0 0.00081839116 3.6261502e-10 4.0424668e-05 1.3549913e-05 9.013888e-08 0.00012485065 1.8348716e-08
2.6255572e-07 1.0208876e-07 3.043992e-07 5.428702e-07 8.641351e-06 4.696995e-11 3.0694883e-34 2.5140083e-09
6.934451e-08 7e-43 1.917107e-07 1.4328139e-09 0.0003095315 6.844121e-08 1.0086134e-05 1.169185e-09
2.062749e-08 2.3707216e-05 8.1664797e-07 1.6789307e-24 2.636433e-10 3.502e-42 2.4239567e-05 2.0682858e-06
00000000: b050 bb1d 528e 3011 b23d f91f 5713 8a11
00000010: cba7 a210 0ff9 b417 1678 0d17 0000 0000
00000020: c261 6424 80c3 810a f74d 2824 a56c fb20
00000030: c79f 8610 c54e f209 d89a 5720 183b b123
00000040: 098c 300d dbf3 3c18 c207 4a03 e109 0e1a
00000050: 8ba2 0904 f401 0000 c93e 7223 f401 0000
00000060: 3da3 241c 5a09 0000 ab59 2422 f37f 1425
00000070: 6cf7 6124 f401 0000 a6a5 9707 f401 0000
00000080: 4129 ac09 93eb 7825 0000 0000 73cd 9924
00000090: f5ab a924 8b13 a223 f7a9 111f 92a0 871a
000000a0: 0185 641b 8a46 0e1d d3d3 9f1b 47eb 6a18
000000b0: 8d57 ca1f f835 0622 cc7b 4e19 7684 5a0f
000000c0: 5fd5 3100 06f6 0200 799d a61a e943 2005
000000d0: 5a38 6e22 6d40 ac14 b7b9 c11b 07e2 ed13
000000e0: a786 3d23 6643 d817 4e26 bc22 2155 5019
000000f0: 9518 bc19 6828 870f 4643 0b24 6bdd ea19
00000100: f2ab 4f31 c627 d012 dd52 632b c74d 7313
00000110: 60e9 9210 4b06 7930 4105 781b 0000 0000
00000120: dba6 5f33 e697 260e 525c 1034 687a 9131
00000130: ea79 b912 5255 e40e 4517 5f30 c987 ee32
00000140: ea7e 9b11 a8d2 a016 93d1 4a28 192c a421
00000150: 28df a90d f401 0000 ae06 4d30 19e1 ba0b
00000160: 6705 aa2e ea6b 0000 660b c030 38f7 0e34
00000170: e28a 5133 fc10 5417 33e4 fe03 e268 ec0b
00000180: ea43 0807 9ea9 cb34 0000 0000 d4a0 a033
00000190: f229 9433 fabd 2932 8985 bb31 19f4 b227
000001a0: a9ee cd25 0f3d d125 7d13 b12d 8870 d12a
000001b0: fea8 d32e 53b2 cb2a fe15 be17 3226 450f
000001c0: ce28 ce0f f964 cf0d aa20 c929 9612 8e03
000001d0: fafa f632 9e1d 6125 c917 b72e b861 5c17
000001e0: 4aa7 9931 e6c9 b519 d1da ac31 259c a618
000001f0: e3c5 8123 e629 740f be4c eb32 bdb3 822f
00000200: f06f 1200 0000 0000 8dab 4f0a 876f bd04
00000210: 081c 0100 c7dd 5300 0000 0000 0000 0000
00000220: c623 2510 0000 0000 c77e c30e 4ccf 3c08
00000230: f401 0000 0000 0000 9d87 ff09 f49d 6f0f
00000240: 0000 0000 0000 0000 e9d1 0505 703d 0609
00000250: 0000 0000 0000 0000 efd3 0a0e 0000 0000
00000260: 7231 9706 0000 0000 78fc 000d 15bf bb0f
00000270: 43e9 090e 0000 0000 0000 0000 f401 0000
00000280: 0000 0000 d2d3 4011 0000 0000 6cbb d00e
00000290: 2ec6 860f a88e 8c0c bf25 9e0b 01d9 710f
000002a0: e813 5308 875f 1d0c f401 0000 0000 0000
000002b0: 0000 0000 3c62 7a01 0000 0000 6afd 1f02
000002c0: f401 0000 0000 0000 11d0 fe0e f401 0000
000002d0: b99e 480c a057 5403 f65c 000b f401 0000
000002e0: 0000 0000 fccc 980c 41a4 a60e df49 1c10
000002f0: 0000 0000 0000 0000 3f3b be0f 7392 0d0c
00000300: 9909 3039 b30f 3b26 d420 8934 ad74 a130
00000310: cde1 b232 91fd d238 8125 772e 0000 0000
00000320: ca74 ea37 caad f032 7547 c739 d5e0 9338
00000330: 1408 1819 6afc 8731 4f94 e736 17f1 1a38
00000340: 0000 0000 f401 0000 c596 822b fd58 c537
00000350: 15ea e427 72fd 5a2f b5ab 2431 be48 ea0b
00000360: 8420 7836 f401 0000 349a 1734 aa95 2539
00000370: e71e 1537 f3d8 752c f401 0000 1d2f c52d
00000380: 0000 0000 4d89 563a 8759 c72f a88d 2938
00000390: 6f54 6337 6092 c133 57ea 0239 419d 9d32
000003a0: 62f5 8c34 e43b db33 4f6c a334 c2b9 1135
000003b0: 52fa 1037 7693 4e2e a300 cc07 e7c2 2c31
000003c0: 8cea 9433 f401 0000 09d9 4d34 a8ec c430
000003d0: 9d48 a239 f4f9 9233 9e37 2937 0ab1 a030
000003e0: 5530 b132 dcde c637 9f37 5b35 a6e6 0118
000003f0: 7ff0 902f c309 0000 1356 cb37 e1cc 0a36

exp_avg f4 [64, 64]
6e-45 6e-45 -6e-45 6e-45 -6e-45 6e-45 6e-45 0.0
6e-45 -6e-45 6e-45 6e-45 6e-45 -6e-45 6e-45 6e-45
-6e-45 6e-45 6e-45 -6e-45 6e-45 -6e-45 6e-45 6e-45
-6e-45 6e-45 6e-45 6e-45 6e-45 -6e-45 6e-45 -6e-45
-6e-45 6e-45 0.0 6e-45 6e-45 6e-45 6e-45 6e-45
-6e-45 6e-45 6e-45 -6e-45 -6e-45 6e-45 6e-45 -6e-45
-6e-45 -6e-45 -6e-45 6e-45 6e-45 -6e-45 6e-45 6e-45
6e-45 -6e-45 6e-45 6e-45 -6e-45 -6e-45 6e-45 6e-45
-6e-45 -6e-45 -6e-45 -6e-45 6e-45 -6e-45 6e-45 0.0
-6e-45 -6e-45 -6e-45 -6e-45 -6e-45 6e-45 -6e-45 -6e-45
-6e-45 6e-45 6e-45 6e-45 6e-45 6e-45 6e-45 6e-45
6e-45 6e-45 6e-45 -6e-45 -6e-45 6e-45 -6e-45 -6e-45
6e-45 -6e-45 0.0 -6e-45 -6e-45 -6e-45 -6e-45 6e-45
6e-45 6e-45 -6e-45 -6e-45 -6e-45 6e-45 6e-45 6e-45
6e-45 6e-45 6e-45 6e-45 -6e-45 6e-45 -6e-45 -6e-45
-6e-45 6e-45 -6e-45 -6e-45 -6e-45 6e-45 -6e-45 -6e-45
-6e-45 0.0 -6e-45 -6e-45 -6e-45 -6e-45 0.0 0.0
6e-45 0.0 6e-45 6e-45 -6e-45 0.0 6e-45 6e-45
0.0 0.0 -6e-45 6e-45 0.0 0.0 6e-45 0.0
6e-45 0.0 6e-45 6e-45 6e-45 0.0 0.0 6e-45
0.0 6e-45 0.0 6e-45 6e-45 6e-45 6e-45 6e-45
6e-45 6e-45 -6e-45 0.0 0.0 6e-45 0.0 6e-45
-6e-45 0.0 6e-45 6e-45 6e-45 -6e-45 6e-45 6e-45
0.0 6e-45 6e-45 6e-45 0.0 0.0 6e-45 6e-45
0.0031409105 1.5e-44 1.3383666e-05 -5.4028952e-08 9.654891e-15 0.0028424351 1.0355999e-18 0.0
0.001731795 1.3003725e-05 0.0050350567 0.002346404 -6e-45 -1.5718057e-09 0.0008108909 0.00057604176
0.0 6e-45 -6e-45 0.00085889903 -6e-45 -5.0245565e-26 -1.13899404e-07 -6e-45
7.976926e-07 6e-45 -3.6734072e-08 0.0024871714 0.00041594845 6e-45 -6e-45 2.905e-42
0.0 0.0068944744 -6.779667e-26 0.001409441 2.8829236e-05 1.6885202e-16 0.0031815912 8.325705e-15
-6.466562e-09 5.1420153e-13 4.124811e-13 -1.5338603e-09 0.0008683462 -2.294948e-18 -6e-45 -1.6117369e-07
-5.249521e-07 6e-45 -6.558314e-10 5.412534e-19 0.0042295414 -8.3072756e-08 0.0012994009 -1.0315786e-17
6e-45 0.0012297524 4.1694668e-05 6e-45 6.640748e-18 -6e-45 0.0010076339 -1.304162e-06
00000000: 0400 0000 0400 0000 0400 0080 0400 0000
00000010: 0400 0080 0400 0000 0400 0000 0000 0000
00000020: 0400 0000 0400 0080 0400 0000 0400 0000
00000030: 0400 0000 0400 0080 0400 0000 0400 0000
00000040: 0400 0080 0400 0000 0400 0000 0400 0080
00000050: 0400 0000 0400 0080 0400 0000 0400 0000
00000060: 0400 0080 0400 0000 0400 0000 0400 0000
00000070: 0400 0000 0400 0080 0400 0000 0400 0080
00000080: 0400 0080 0400 0000 0000 0000 0400 0000
00000090: 0400 0000 0400 0000 0400 0000 0400 0000
000000a0: 0400 0080 0400 0000 0400 0000 0400 0080
000000b0: 0400 0080 0400 0000 0400 0000 0400 0080
000000c0: 0400 0080 0400 0080 0400 0080 0400 0000
000000d0: 0400 0000 0400 0080 0400 0000 0400 0000
000000e0: 0400 0000 0400 0080 0400 0000 0400 0000
000000f0: 0400 0080 0400 0080 0400 0000 0400 0000
00000100: 0400 0080 0400 0080 0400 0080 0400 0080
00000110: 0400 0000 0400 0080 0400 0000 0000 0000
00000120: 0400 0080 0400 0080 0400 0080 0400 0080
00000130: 0400 0080 0400 0000 0400 0080 0400 0080
00000140: 0400 0080 0400 0000 0400 0000 0400 0000
00000150: 0400 0000 0400 0000 0400 0000 0400 0000
00000160: 0400 0000 0400 0000 0400 0000 0400 0080
00000170: 0400 0080 0400 0000 0400 0080 0400 0080
00000180: 0400 0000 0400 0080 0000 0000 0400 0080
00000190: 0400 0080 0400 0080 0400 0080 0400 0000
000001a0: 0400 0000 0400 0000 0400 0080 0400 0080
000001b0: 0400 0080 0400 0000 0400 0000 0400 0000
000001c0: 0400 0000 0400 0000 0400 0000 0400 0000
000001d0: 0400 0080 0400 0000 0400 0080 0400 0080
000001e0: 0400 0080 0400 0000 0400 0080 0400 0080
000001f0: 0400 0080 0400 0000 0400 0080 0400 0080
00000200: 0400 0080 0000 0000 0400 0080 0400 0080
00000210: 0400 0080 0400 0080 0000 0000 0000 0000
00000220: 0400 0000 0000 0000 0400 0000 0400 0000
00000230: 0400 0080 0000 0000 0400 0000 0400 0000
00000240: 0000 0000 0000 0000 0400 0080 0400 0000
00000250: 0000 0000 0000 0000 0400 0000 0000 0000
00000260: 0400 0000 0000 0000 0400 0000 0400 0000
00000270: 0400 0000 0000 0000 0000 0000 0400 0000
00000280: 0000 0000 0400 0000 0000 0000 0400 0000
00000290: 0400 0000 0400 0000 0400 0000 0400 0000
000002a0: 0400 0000 0400 0000 0400 0080 0000 0000
000002b0: 0000 0000 0400 0000 0000 0000 0400 0000
000002c0: 0400 0080 0000 0000 0400 0000 0400 0000
000002d0: 0400 0000 0400 0080 0400 0000 0400 0000
000002e0: 0000 0000 0400 0000 0400 0000 0400 0000
000002f0: 0000 0000 0000 0000 0400 0000 0400 0000
00000300: bcd7 4d3b 0b00 0000 688a 6037 760d 68b3
00000310: 53ed 2d28 2648 3a3b dcd3 9821 0000 0000
00000320: 66fd e23a 932a 5a37 1efd a43b 20c6 193b
00000330: 0400 0080 ff06 d8b0 f891 543a 8201 173a
00000340: 0000 0000 0400 0000 0400 0080 bd27 613a
00000350: 0400 0080 d2cd 7895 dc98 f4b3 0400 0080
00000360: 0521 5635 0400 0000 8ac5 1db3 d0ff 223b
00000370: a813 da39 0400 0000 0400 0080 1908 0000
00000380: 0000 0000 0beb e13b 3fdb a795 febc b83a
00000390: 50d6 f137 52ac 4225 3e82 503b 8afb 1528
000003a0: 7b30 deb1 20bc 102b cb34 e82a e9cf d2b0
000003b0: baa1 633a 5856 29a2 0400 0080 160f 2db4
000003c0: 6fea 0cb5 0400 0000 0846 34b0 f3bf 1f21
000003d0: f797 8a3b bb65 b2b3 a950 aa3a ec4a 3ea3
000003e0: 0400 0000 a52f a13a 4fe1 2e38 0400 0000
000003f0: 1700 f522 0400 0080 9512 843a aa0a afb5

exp_avg_sq f4 [64]
0.00090372365 4.0734567e-09 4.140348e-05 4.387195e-06 1.6187939e-06 0.00061954133 3.1597694e-06 0.0
0.00059206027 9.787431e-06 0.0010921801 0.0012458687 1.8684257e-20 2.258526e-06 0.001202633 0.0005401772
8.730676e-24 4.1320793e-20 6.0887055e-09 0.00046825045 1.8329692e-11 4.0882426e-08 6.4063834e-06 1.05132844e-29
5.4432483e-05 2.2447372e-38 1.309886e-05 0.00031914999 0.00082790386 8.903373e-09 7.870077e-30 7.7497475e-09
1.7474569e-28 0.0010427255 2.7183498e-07 0.0018095328 0.00149877 4.1374406e-05 0.0039042938 1.3270588e-05
4.0256473e-05 1.5940283e-06 2.2304028e-05 7.617597e-05 0.001155029 1.7482997e-06 6.7791615e-07 1.9455063e-06
2.246939e-06 7.927187e-07 1.626115e-05 1.2054736e-07 0.0041695144 7.964876e-07 0.0016255548 3.6997853e-06
5.0223944e-06 0.00115854 0.00018564018 4.1031887e-20 2.9789214e-06 2.2967826e-27 0.0021258735 2.7015032e-05
00000000: dee7 6c3a 81f6 8b31 a6a8 2d38 b835 9336
00000010: 5645 d935 b768 223a 6d0c 5436 0000 0000
00000020: 7e34 1b3a b234 2437 7c27 8f3a 6b4c a33a
00000030: c377 b01e 2e91 1736 aba1 9d3a ae9a 0d3a
00000040: 37e0 2819 c621 431f d234 d131 837f f539
00000050: cc3a a12d b496 2f33 6af6 d636 183c 550f
00000060: 6f4e 6438 246e f400 2dc3 5b37 9653 a739
00000070: b007 593a 73f5 1832 c79f 1f0f c023 0532
00000080: 3884 5d11 10ac 883a b7f0 9134 d82d ed3a
00000090: 6072 c43a 6e89 2d38 2edf 7f3b bea4 5e37
000000a0: 0fd9 2838 65f2 d535 8919 bb37 aac0 9f38
000000b0: 5864 973a 1fa7 ea35 0bfa 3535 8b8f 0236
000000c0: 1eca 1636 37cb 5435 8e68 8837 ce6f 0134
000000d0: 6ca0 883b 36ce 5535 9110 d53a d449 7836
000000e0: 0a86 a836 27da 973a 68a8 4239 82c4 411f
000000f0: 7be9 4736 49f8 3513 3d52 0b3b 579e e237

exp_avg f4 [64]
0.009610892 3.9767e-41 -0.00084114145 -1.4345644e-05 6.523102e-14 0.005182433 4.962345e-16 0.0
-0.0007389193 0.00072541134 -0.0039255437 0.0043180934 6e-45 -1.2109528e-07 -0.0015302104 0.002774366
6e-45 6e-45 6e-45 0.0026117605 6e-45 7.198692e-25 -3.3685085e-06 6e-45
6.168355e-05 6e-45 2.930066e-06 0.00024857532 0.0013790447 -1.1e-44 -6e-45 5.4302e-41
6e-45 -0.0018105998 1.8271748e-24 -0.010483438 0.0021139751 -2.4509571e-14 0.004652448 -9.9971836e-14
-7.652211e-08 -1.5194626e-10 -1.4623837e-11 -1.5023441e-07 0.0076462785 -5.7258194e-16 -6e-45 1.9493734e-06
7.74633e-06 8.516785e-24 7.088842e-09 5.693587e-17 0.017617745 -1.9094548e-06 0.006584386 -5.3746766e-16
-1.5e-44 0.0069484776 0.0048423368 6e-45 8.202875e-09 6e-45 -0.007373113 -1.720015e-05
00000000: 0177 1d3c db6e 0000 0c80 5cba 12ae 70b7
00000010: 1fe3 9229 66d1 a93b a507 0f26 0000 0000
00000020: 09b4 41ba 8829 3e3a d9a1 80bb cb7e 8d3b
00000030: 0400 0000 6b06 02b4 5791 c8ba 23d2 353b
00000040: 0400 0000 0400 0000 0400 0000 122a 2b3b
00000050: 0400 0000 eac9 5e17 890e 62b6 0400 0000
00000060: 1b5c 8138 0400 0000 27a2 4436 3753 8239
00000070: 10c1 b43a 0800 0080 0400 0080 5f97 0000
00000080: 0400 0000 a651 edba ed5e 0d18 bac2 2bbc
00000090: 9e8a 0a3b 39c3 dca8 9073 983b d71d e1a9
000000a0: 7a54 a4b3 1211 27af f4a1 80ad 1f50 21b4
000000b0: a28d fa3b 1709 25a6 0400 0080 fbd1 0236
000000c0: 3cf6 0137 14bd 2419 1d92 f331 0149 8324
000000d0: 1753 903c 2f24 00b6 d5c1 d73b 1dea 1aa6
000000e0: 0b00 0080 0eb0 e33b 77ac 9e3b 0400 0000
000000f0: a0ec 0c32 0400 0000 289a f1bb 0a49 90b7

exp_avg_sq f4 [64]
2.0302375e-16 4.2331678e-07 2.3512776e-28 0.0018941521 0.0 2.2188506e-18 0.002536354 2.4193221e-05
0.0013035818 0.0039150924 0.005359877 2.0202333e-09 2.1074333e-05 0.0066702478 0.003842282 1.4843679e-05
7.627104e-05 0.0023862019 8.82038e-16 7.389054e-06 0.00011156509 1.9617528e-05 1.2925783e-21 0.0042402786
7.5326307e-07 4.7165562e-32 3.0159945e-38 1.6963285e-25 8.299426e-09 0.0023759583 6.9863435e-25 5.8493085e-25
0.00045146083 1.063046e-05 1.4371159e-06 2.6253473e-09 0.0029427728 2.1533906e-05 2.5913873e-19 1.2646792e-06
0.0022624175 1.2486881e-06 0.00033695786 0.0029326163 0.00035511522 0.0039543863 1.6471964e-06 0.000384195
0.0009684593 4.163277e-06 9.8533754e-05 3.2976466e-27 1.5332997e-05 3.3862553e-21 2.14837e-27 0.0021020758
0.0053855637 0.00013206998 0.0062838923 0.0044478984 9.275537e-07 1.3277902e-23 0.003518397 3.309771e-06
00000000: 0912 6a25 3744 e334 a907 9511 3345 f83a
00000010: 0000 0000 e7b8 2322 f538 263b 8cf2 ca37
00000020: f2dc aa3a 2d4a 803b e8a1 af3b 52d4 0a31
00000030: c9c8 b037 1892 da3b ccce 7b3b 1e09 7937
00000040: b4f3 9f38 d361 1c3b eb3a 7e26 7eef f736
00000050: 0df8 e938 5290 a437 3354 c31c 09f2 8a3b
00000060: d833 4a35 c9e5 740b d434 2401 ccfe 5116
00000070: 4395 0e32 f7b5 1b3b 8437 5817 ff06 3517
00000080: 0cb2 ec39 7a59 3237 ede2 c035 9969 3431
00000090: 89db 403b b6a3 b437 f0f7 9820 0cbe a935
000000a0: 1145 143b 9998 a735 b8a9 b039 2331 403b
000000b0: c22e ba39 cc93 813b 3d15 dd35 c86d c939
000000c0: 34e0 7d3a 47b2 8b36 e8a3 ce38 1ca2 8213
000000d0: 5c9f 8037 b4db 7f1d 1f36 2a13 fbc2 093b
000000e0: 6279 b03b 447c 0a39 1ce9 cd3b adbf 913b
000000f0: 01fd 7835 7e6a 8019 e894 663b 6f1d 5e36

exp_avg f4 [64]
6e-45 -6e-45 6e-45 0.012003044 0.0 6e-45 0.008748449 -2.1674961e-15
-0.0019707181 -0.015323049 0.016354753 6e-45 -6.757257e-09 -0.010480445 -0.0012658971 -3.945493e-06
-6.468067e-06 0.0030149792 6e-45 1.30557126e-17 -1.1624975e-05 -1.3311594e-15 6e-45 0.002048825
4.5570545e-14 6e-45 -6e-45 6e-45 6e-45 -0.014082004 -6e-45 6e-45
8.382185e-07 -1.3846547e-13 1.7863238e-20 6e-45 -0.006022472 -1.6802596e-12 6e-45 4.8775684e-14
0.00028402166 6e-45 2.5694817e-07 0.006072752 0.0037759086 0.011316631 6e-45 0.0006845595
-0.0055542532 -3.343615e-14 -2.7091963e-05 6e-45 3.3391315e-13 -6e-45 6e-45 -0.0007544373
0.018885177 0.0004977649 -0.015974967 0.007720844 -1.3229212e-05 6e-45 -0.006498658 5.753438e-14
00000000: 0400 0000 0400 0080 0400 0000 6aa8 443c
00000010: 0000 0000 0400 0000 a855 0f3c 3f2f 1ca7
00000020: 2a27 01bb 870d 7bbc 67fa 853c 0400 0000
00000030: 762d e8b1 2cb6 2bbc 75ec a5ba 8763 84b6
00000040: 4608 d9b6 f596 453b 0400 0000 dcd5 7023
00000050: e308 43b7 1dd7 bfa6 0400 0000 9445 063b
00000060: 433b 4d29 0400 0000 0400 0080 0400 0000
00000070: 0400 0000 35b8 66bc 0400 0080 0400 0000
00000080: f001 6135 f4e5 1baa a9b6 a81e 0400 0000
00000090: 2858 c5bb bb79 ecab 0400 0000 89aa 5b29
000000a0: bee8 9439 0400 0000 b0f2 8934 f0fd c63b
000000b0: 3c75 773b 6469 393c 0400 0000 0374 333a
000000c0: 7400 b6bb 4295 16a9 8c43 e3b7 0400 0000
000000d0: f5f9 bb2a 0400 0080 0400 0000 6ec5 45ba
000000e0: 16b5 9a3c 707c 023a efdd 82bc 22ff fc3b
000000f0: 08f3 5db7 0400 0000 b2f2 d4bb 508e 8129
