algo/reinforce/reinf_changed_1e84_post50k.pt (torch_old, 126049 bytes, 24 tensors)

exp_avg_sq f4 [64, 25]
1.6336061e-12 1.23693034e-14 4.063742e-13 1.547187e-12 1.9803914e-13 1.6161416e-13 1.2494193e-15 1.1792948e-13
5.5557196e-14 3.2026992e-28 2.1988853e-22 2.211532e-12 6.254058e-14 5.3715454e-15 5.8045874e-14 9.516673e-15
2.9580466e-16 7.7939723e-17 3.2077833e-17 5.8084767e-18 5.804594e-14 9.516884e-15 2.9498187e-16 1.0512607e-18
7.164425e-19 0.22522782 0.10860948 0.019792372 0.22303203 0.07566001 0.019798756 0.0025688054
0.011310669 0.0019699172 5.157084e-15 3.540705e-09 0.02940792 0.009550024 0.02615152 5.0691515e-06
1.0955624e-05 1.6010568e-05 9.3495866e-05 9.662728e-05 5.9721417e-05 5.23084e-06 1.2005697e-05 4.4924072e-06
1.1780285e-06 3.852076e-06 1.1957013e-07 8.149641e-08 1.1165084e-08 1.0881198e-07 4.450645e-08 1.657569e-08
5.643704e-10 5.6770855e-09 6.125773e-10 5.9748946e-25 4.102164e-19 4.953869e-07 5.874395e-08 6.9561594e-07
2.5706024e-12 8.113265e-12 1.8099982e-11 5.047501e-09 1.6191889e-09 5.594716e-10 1.134924e-12 1.5897955e-11
1.090919e-11 2.7315512e-14 5.5774825e-12 4.767183e-09 1.1352733e-09 3.232592e-10 6.046544e-09 8.63687e-10
1.2783419e-11 8.121745e-11 3.0566612e-11 2.8416205e-10 5.2466985e-24 3.6022094e-18 4.361943e-09 2.3045539e-09
2.6305385e-09 1.9928549e-12 2.752159e-13 8.48585e-14 3.3351652e-10 1.2729873e-09 1.0756335e-11 8.9644194e-14
1.4816046e-13 4.781025e-13 1.7759494e-14 3.7891843e-14 0.27662042 0.13873845 0.024369976 0.27620086
0.097771525 0.023252804 0.003341872 0.01483212 0.0030593867 5.76284e-15 3.956569e-09 0.04556296
0.008145718 0.03505389 6.4500896e-06 1.28934125e-05 1.2461789e-05 0.0001320234 0.0001180386 6.6387154e-05
6.5073123e-06 1.4792323e-05 5.6223653e-06 1.4802406e-06 4.548354e-06 0.010378293 0.005130243 0.0006888429
0.012100184 0.0040872646 5.965207e-05 0.0001256185 0.00018357599 0.0005027172 4.6286266e-31 3.1778685e-25
0.013600026 0.005749538 0.017967872 7.861527e-08 5.768246e-07 3.549301e-06 8.441997e-06 9.133625e-06
1.259812e-06 6.374484e-08 5.7364156e-07 1.3442056e-07 6.5532757e-09 3.9435614e-07 5.6993943e-09 2.4124585e-09
1.2959194e-09 5.871786e-09 2.2928173e-09 8.2590873e-10 2.9478704e-11 5.775453e-11 9.3823185e-11 3.293046e-27
2.2609066e-21 2.9431058e-08 7.993065e-09 2.8943633e-08 1.5053576e-12 2.2520938e-13 3.1380486e-13 9.035796e-12
3.893204e-11 3.1285853e-12 1.2851446e-12 2.7056542e-13 2.5085958e-13 2.2264502e-16 1.6457428e-15 0.4419952
0.22454268 0.03900116 0.43790543 0.15187438 0.0388008 0.0050244466 0.024167445 0.0038251653
9.407518e-15 6.458924e-09 0.048857365 0.013374142 0.04598463 9.904229e-06 2.0889833e-05 2.2089524e-05
0.00016691368 0.00016366909 0.00010429703 1.0221971e-05 2.3610623e-05 8.758548e-06 2.0240498e-06 7.3670312e-06
1.9808818e-15 4.1630903e-15 5.547959e-16 2.9641658e-15 2.8584959e-15 9.993722e-17 1.2954072e-16 2.151133e-16
2.83535e-16 0.0 0.0 8.615677e-15 2.3173934e-15 1.1147088e-14 8.4077057e-19 1.5069291e-19
4.145684e-19 1.439039e-17 8.93635e-17 2.1132568e-18 4.5447945e-19 1.3939403e-19 3.693556e-19 4.305761e-20
1.5163335e-22 3.6724755e-17 2.6773982e-17 7.851948e-18 4.3216087e-17 1.8647948e-17 3.812209e-18 4.8221114e-19
7.5493435e-19 2.1058281e-18 0.0 0.0 1.1895944e-16 3.6653604e-17 1.8870769e-16 5.117815e-21
2.4306748e-20 2.7557052e-21 2.4148723e-18 2.1118984e-18 1.2971399e-20 2.6081033e-21 1.7708195e-20 2.5916508e-21
7.085034e-24 6.5765366e-25 2.986253e-07 5.3774045e-08 2.478062e-08 3.36464e-07 6.210987e-08 3.5537888e-09
00000000: dde8 e52b 58d3 5e28 b2c4 e42a 49bf d92b
00000010: e5f8 5e2a 1cf6 352a 700f b426 dcc6 042a
00000020: 1635 7a29 c4fe ca11 1aea 841b 6b9f 1b2c
00000030: 31d4 8c29 c387 c127 2bb5 8229 e86f 2b28
00000040: 1085 aa25 7eb7 b324 d2ee 1324 834b d622
00000050: 35b5 8229 e270 2b28 a40b aa25 8223 9b21
00000060: dd74 5321 1fa2 663e a66e de3d 9d23 a23c
00000070: 8262 643e a3f3 9a3d 0031 a23c 6759 283b
00000080: 6250 393c ba19 013b b4cd b927 be50 7331
00000090: e1e8 f03c b477 1c3c b63b d63c ae17 aa36
000000a0: 0cce 3737 6f4e 8637 3613 c438 60a4 ca38
000000b0: 627d 7a38 9384 af36 136c 4937 7cbd 9636
000000c0: c01c 9e35 1541 8136 3063 0034 2003 af33
000000d0: 8fd0 3f32 05ac e933 5c27 3f33 5462 8e32
000000e0: 0922 1b30 2c10 c331 4c62 2830 fee9 3817
000000f0: 2626 f220 bbfa 0435 a84d 7c33 5dba 3a35
00000100: dbe3 342c e6ba 0e2d 8935 9f2d 4a6e ad31
00000110: 258a de30 50c9 1930 f2b9 9f2b 03d7 8b2d
00000120: a0ea 3f2d 4809 f628 7f3d c42c 96cc a331
00000130: e107 9c30 b0b6 b12f f7c1 cf31 9268 6d30
00000140: 67e3 602d 5c99 b22e f26e 062e 4138 9c2f
00000150: c9f8 ca18 e8e5 8422 0ee0 9531 245e 1e31
00000160: ecc4 3431 153c 0c2c cbee 9a2a 9815 bf29
00000170: 475a b72f 42f5 ae30 3a3a 3d2d 5cdc c929
00000180: 58d0 262a ea92 062b 9bf6 9f28 52a6 2a29
00000190: 31a1 8d3e 7411 0e3e 8ba3 c73c 336a 8d3e
000001a0: 703c c83d aa7c be3c 4f03 5b3b 6c02 733c
000001b0: fe7f 483b d1a0 cf27 59f2 8731 3aa0 3a3d
000001c0: 9e75 053c ab94 0f3d d96d d836 c950 5837
000001d0: fa12 5137 c36f 0a39 7e8b f738 5539 8b38
000001e0: 6359 da36 8b2c 7837 c0a7 bc36 aeac c635
000001f0: 109e 9836 b709 2a3c 991b a83b 7793 343a
00000200: da3f 463c 76ee 853b ec32 7a38 76b8 0339
00000210: 4e7e 4039 c8c8 033a 2035 160d 56b3 c416
00000220: a5d2 5e3c 9f66 bc3b 5c31 933c 34d3 a833
00000230: 16d7 1a35 8730 6e36 1aa2 0d37 9f3c 1937
00000240: d016 a935 19e4 8833 59fc 1935 3e55 1034
00000250: 392b e131 e5b7 d334 67d4 c331 6bc8 2531
00000260: 1c1c b230 c7c0 c931 ab8f 1d31 2906 6330
00000270: 12a6 012e d201 7e2e c251 ce2e 7473 8213
00000280: 4bd4 2a1d 95cf fc32 df51 0932 b99f f832
00000290: 39dc d32b 2f90 7d2a 0ca8 b02a 9cf5 1e2d
000002a0: 9539 2b2e 9527 5c2c 37de b42b 9650 982a
000002b0: ad38 8d2a 9b58 8025 312d ed26 324d e23e
000002c0: 84ee 653e aebf 1f3d 2435 e03e f584 1b3e
000002d0: 96ed 1e3d 1da4 a43b cefa c53c a0af 7a3b
000002e0: 8578 2928 4ced dd31 a91e 483d 381f 5b3c
000002f0: 615a 3c3d 572a 2637 933c af37 e44c b937
00000300: 8d05 2f39 969e 2b39 0bba da38 087f 2b37
00000310: 6d0f c637 adf1 1237 e9d4 0736 5132 f736
00000320: d2bc 0e27 bbfd 9527 b6e8 1f26 3597 5527
00000330: f1f9 4d27 8670 e624 ac59 1525 3d02 7825
00000340: 6172 a325 0000 0000 0000 0000 cc34 1b28
00000350: 5dfc 2627 dfce 4828 d426 7821 23e8 3120
00000360: ceb7 f420 59ba 8423 e60e ce24 4bee 1b22
00000370: 7f23 0621 4391 2420 7107 da20 7555 4b1f
00000380: 4050 371b f05c 2924 47f2 f623 c7d7 1023
00000390: 8d4c 4724 39ff ab23 4ca5 8c22 d852 0e21
000003a0: 3ad1 5e21 f861 1b22 0000 0000 0000 0000
000003b0: a126 0925 f008 2924 ae90 5925 7858 c11d
000003c0: 1c92 e51e 1737 501d a62f 3222 a2d4 1b22
000003d0: d605 751e 0e10 451d ca3f a71e d1d1 431d
000003e0: 640b 0919 b188 4b17 c052 a034 30f5 6633
000003f0: 29dd d432 43a3 b434 4361 8533 ea36 7431

exp_avg f4 [64, 25]
6e-45 6e-45 6e-45 6e-45 6e-45 6e-45 -6e-45 6e-45
-6e-45 6e-45 -6e-45 6e-45 -6e-45 6e-45 -6e-45 -6e-45
6e-45 -6e-45 6e-45 -6e-45 6e-45 6e-45 -6e-45 -6e-45
6e-45 0.02445883 0.003747217 0.0077807205 0.02343686 0.004890048 0.0068739336 -0.0010219798
0.0011428331 -0.0009067879 5.871244e-09 -4.8648812e-06 1.711752e-05 2.5816828e-06 -3.3195258e-05 -0.00037578767
-0.0005956203 -0.0006270929 6.314063e-05 -7.0910714e-06 2.6246515e-05 0.0003750402 0.00059831655 0.00062641565
-1.3774664e-05 0.0002992822 -6e-45 -6e-45 -6e-45 -6e-45 -6e-45 -6e-45
-6e-45 -6e-45 6e-45 -6e-45 6e-45 -6e-45 6e-45 6e-45
-6e-45 -6e-45 6e-45 -6e-45 6e-45 6e-45 6e-45 6e-45
6e-45 6e-45 -6e-45 6e-45 6e-45 6e-45 6e-45 6e-45
6e-45 6e-45 -6e-45 -6e-45 -6e-45 6e-45 6e-45 6e-45
6e-45 6e-45 -6e-45 6e-45 6e-45 6e-45 6e-45 -6e-45
-6e-45 -6e-45 6e-45 6e-45 -0.011568714 -0.014668126 -0.002948892 -0.006701334
-0.013649875 -0.0034574857 0.0048673744 0.0010182449 -0.000508593 1.0934858e-08 -9.060565e-06 -6.7818723e-06
-1.754515e-07 0.000283704 -0.00026148386 -0.00048512605 -0.0007801694 0.00014215658 -3.3487384e-05 -7.187981e-05
0.00026414188 0.00047846357 0.00077923306 0.00019382079 0.00018684308 8.208901e-05 7.4756754e-05 1.5880749e-05
9.560333e-05 6.0236973e-05 1.21376615e-05 1.3514346e-05 -1.45197755e-05 -3.743079e-06 -6e-45 6e-45
-6.0875023e-05 1.7836605e-06 7.5970034e-05 9.5211675e-07 -3.357881e-06 -3.6048411e-06 7.72463e-07 1.1894346e-06
-1.3040135e-06 -8.7569504e-07 3.3101642e-06 3.424708e-06 -3.45838e-08 1.5804176e-07 6e-45 6e-45
6e-45 6e-45 6e-45 6e-45 -6e-45 6e-45 -6e-45 -6e-45
6e-45 6e-45 -6e-45 6e-45 6e-45 -6e-45 -6e-45 -6e-45
6e-45 -6e-45 -6e-45 6e-45 6e-45 6e-45 6e-45 0.032255948
0.007938659 0.009800285 0.031465556 0.005083881 0.009027245 -0.00079039 -0.0028547617 -0.0007730452
1.3883851e-08 -1.1504083e-05 4.0225088e-05 -4.023945e-06 -0.0017019213 -0.00044975808 -0.00083860965 -0.0009788981
0.0001338407 -2.9245855e-05 -4.0678435e-05 0.00045336926 0.0008345278 0.0009772521 0.00015290643 0.00041582537
6e-45 6e-45 6e-45 6e-45 6e-45 6e-45 6e-45 -6e-45
-6e-45 0.0 0.0 -6e-45 -6e-45 -6e-45 6e-45 -6e-45
6e-45 6e-45 6e-45 6e-45 -6e-45 -6e-45 -6e-45 6e-45
6e-45 6e-45 6e-45 6e-45 6e-45 6e-45 6e-45 6e-45
-6e-45 -6e-45 0.0 0.0 6e-45 -6e-45 6e-45 6e-45
-6e-45 -6e-45 6e-45 6e-45 -6e-45 -6e-45 6e-45 6e-45
6e-45 6e-45 6e-45 6e-45 6e-45 6e-45 6e-45 6e-45
00000000: 0400 0000 0400 0000 0400 0000 0400 0000
00000010: 0400 0000 0400 0000 0400 0080 0400 0000
00000020: 0400 0080 0400 0000 0400 0080 0400 0000
00000030: 0400 0080 0400 0000 0400 0080 0400 0080
00000040: 0400 0000 0400 0080 0400 0000 0400 0080
00000050: 0400 0000 0400 0000 0400 0080 0400 0080
00000060: 0400 0000 e25d c83c de93 753b 6af5 fe3b
00000070: a8fe bf3c b23c a03b bc3e e13b f4f3 85ba
00000080: 1ecb 953a 81b5 6dba 02bc c931 033d a3b6
00000090: 9897 8f37 f940 2d36 233b 0bb8 5e05 c5b9
000000a0: 6723 1cba 7e63 24ba 5e6a 8438 d7ef edb6
000000b0: f62b dc37 0ba1 c439 58d8 1c3a 0b36 243a
000000c0: bb19 67b7 fae8 9c39 0400 0080 0400 0080
000000d0: 0400 0080 0400 0080 0400 0080 0400 0080
000000e0: 0400 0080 0400 0080 0400 0000 0400 0080
000000f0: 0400 0000 0400 0080 0400 0000 0400 0000
00000100: 0400 0080 0400 0080 0400 0000 0400 0080
00000110: 0400 0000 0400 0000 0400 0000 0400 0000
00000120: 0400 0000 0400 0000 0400 0080 0400 0000
00000130: 0400 0000 0400 0000 0400 0000 0400 0000
00000140: 0400 0000 0400 0000 0400 0080 0400 0080
00000150: 0400 0080 0400 0000 0400 0000 0400 0000
00000160: 0400 0000 0400 0000 0400 0080 0400 0000
00000170: 0400 0000 0400 0000 0400 0000 0400 0080
00000180: 0400 0080 0400 0080 0400 0000 0400 0000
00000190: b48a 3dbc 9452 70bc 3342 41bb dd96 dbbb
000001a0: baa3 5fbc fc96 62bb 7f7e 9f3b a176 853a
000001b0: 1953 05ba 04dc 3b32 d502 18b7 d78f e3b6
000001c0: be63 3cb4 1bbe 9439 c517 89b9 8458 feb9
000001d0: 4884 4cba de0f 1539 ce74 0cb8 2ebe 96b8
000001e0: 867c 8a39 4bda fa39 7245 4c3a 5f3c 4b39
000001f0: 4feb 4339 3427 ac38 bac6 9c38 a637 8537
00000200: a67e c838 f5a6 7c38 dca2 4b37 adbb 6237
00000210: f699 73b7 9c31 7bb6 0400 0080 0400 0000
00000220: 0f54 7fb8 1c66 ef35 1a52 9f38 f794 7f35
00000230: f557 61b6 b3ea 71b6 415b 4f35 a9a4 9f35
00000240: 9005 afb5 4e11 6bb5 3024 5e36 09d4 6536
00000250: 4a89 14b3 30b2 2934 0400 0000 0400 0000
00000260: 0400 0000 0400 0000 0400 0000 0400 0000
00000270: 0400 0080 0400 0000 0400 0080 0400 0080
00000280: 0400 0000 0400 0000 0400 0080 0400 0000
00000290: 0400 0000 0400 0080 0400 0080 0400 0080
000002a0: 0400 0000 0400 0080 0400 0080 0400 0000
000002b0: 0400 0000 0400 0000 0400 0000 d01e 043d
000002c0: 2611 023c 6091 203c 07e2 003d af96 a63b
000002d0: 03e7 133c 2d32 4fba f416 3bbb 2fa6 4aba
000002e0: d385 6e32 a901 41b7 5cb7 2838 6d05 87b6
000002f0: 0113 dfba 82cd ebb9 24d6 5bba 5f4e 80ba
00000300: 9757 0c39 ff54 f5b7 239e 2ab8 31b2 ed39
00000310: 36c4 5a3a 2417 803a 8255 2039 2303 da39
00000320: 0400 0000 0400 0000 0400 0000 0400 0000
00000330: 0400 0000 0400 0000 0400 0000 0400 0080
00000340: 0400 0080 0000 0000 0000 0000 0400 0080
00000350: 0400 0080 0400 0080 0400 0000 0400 0080
00000360: 0400 0000 0400 0000 0400 0000 0400 0000
00000370: 0400 0080 0400 0080 0400 0080 0400 0000
00000380: 0400 0000 0400 0000 0400 0000 0400 0000
00000390: 0400 0000 0400 0000 0400 0000 0400 0000
000003a0: 0400 0080 0400 0080 0000 0000 0000 0000
000003b0: 0400 0000 0400 0080 0400 0000 0400 0000
000003c0: 0400 0080 0400 0080 0400 0000 0400 0000
000003d0: 0400 0080 0400 0080 0400 0000 0400 0000
000003e0: 0400 0000 0400 0000 0400 0000 0400 0000
000003f0: 0400 0000 0400 0000 0400 0000 0400 0000

exp_avg_sq f4 [64, 64]
2.3491425e-13 0.003667989 3.9888658e-08 1.2448844e-12 0.0013219686 2.1888914e-10 8.7422593e-13 0.0010578461
5.8743085e-17 0.0 6.5762285e-09 2.4632814e-18 0.0011060794 3.872562e-07 7.3826527e-09 8.065693e-07
7.0312516e-09 0.00093600637 0.0012412417 0.00013674037 3.4743087e-05 0.002512419 0.0010966593 0.0027945824
1.283175e-11 0.0003722125 6.210455e-12 0.0021317354 0.0016508 1.286982e-09 0.0019125885 7.6073924e-13
0.0001154324 1.2040709e-10 0.0022238952 1.361605e-14 0.000264641 2.4275224e-14 1.8368202e-07 0.00095511327
6.1725536e-16 3.852632e-08 4.0531398e-12 0.0009334599 0.0020046635 1.599547e-14 1.70555e-05 0.00021923248
0.0028237565 0.00097258703 2.5026473e-13 0.0011867676 0.0004334069 0.00024066523 1.7148827e-06 0.0016076567
0.0 0.0012012104 4.524073e-14 0.0009817707 0.0009952884 0.00144267 3.3821252e-05 4.1657467e-17
9.357657e-16 0.00026261888 6.911375e-14 3.792735e-14 0.010388799 0.00119131 8.760218e-10 0.00040600126
8.261833e-19 3.42317e-19 2.6435288e-08 0.0 0.013310332 1.3625145e-06 7.6125946e-11 5.3052434e-05
9.384427e-08 1.3063757e-05 0.000102210564 1.7912807e-05 2.2654917e-06 6.959768e-05 0.010278744 0.00030876117
8.22586e-09 6.0102786e-07 1.6103575e-15 7.76609e-05 0.004108922 8.925743e-14 0.006256703 3.9546494e-14
0.014315747 9.8490524e-08 0.00014283539 6.142247e-15 0.007808977 3.5705422e-16 0.00028191315 0.0007724508
0.0 8.912144e-08 1.2865822e-09 0.00023810037 0.004235105 3.1400312e-17 8.275201e-06 5.9622766e-06
0.00024469153 4.3287573e-06 3.9556164e-14 0.0002671513 0.00062894635 0.0007005179 5.820263e-07 0.0005279997
1.0490735e-15 9.7732685e-05 5.588457e-11 0.00305549 0.030920751 1.4232027e-05 9.612569e-07 0.0
2.272391e-16 3.3019234e-12 1.34961054e-14 8.84133e-14 3.2947772e-10 4.175752e-11 2.0342922e-12 5.885167e-11
5.853811e-17 1.546447e-19 3.814863e-15 1.3227737e-19 2.6471111e-10 3.975665e-12 1.4928215e-16 2.0321478e-10
1.3439771e-12 8.196895e-14 3.1025798e-12 9.15334e-12 8.817437e-14 1.7782387e-12 2.77744e-10 1.874088e-11
5.004614e-16 1.6256607e-12 7.431031e-15 6.356048e-13 2.4522204e-14 7.1048805e-14 6.9505506e-11 5.4270106e-17
7.1610294e-11 3.8755527e-12 5.783641e-12 2.1010836e-16 1.4893049e-10 2.510872e-16 4.2435807e-12 2.3791273e-11
3.628222e-18 1.1506396e-15 4.7240923e-11 2.9853165e-11 4.4717217e-13 8.43128e-16 3.544506e-11 1.3774848e-11
3.309143e-12 9.463411e-16 7.2535565e-14 2.6836384e-18 4.2043577e-11 1.4953089e-10 4.552034e-12 4.1029447e-11
0.0 1.8815993e-12 1.2842772e-14 1.211659e-10 1.2576759e-10 7.085994e-14 2.3752307e-16 8.6743106e-18
1.3595108e-18 8.951945e-11 5.838446e-18 1.0211657e-14 1.5292389e-11 8.168992e-15 3.630826e-15 1.6967591e-10
5.931761e-20 0.0 2.0516304e-16 0.0 3.5922485e-16 1.4449682e-14 6.102284e-19 8.124442e-12
0.0 1.5612767e-14 1.2274383e-10 8.284381e-15 3.782983e-18 0.0 6.896325e-11 3.390119e-10
1.6772157e-17 1.7321413e-13 1.6149628e-14 1.3803548e-13 6.1461394e-13 6.168269e-12 1.02558193e-16 0.0
5.3600988e-11 1.6668003e-15 1.2990187e-10 4.545398e-16 1.8465248e-11 6.3573734e-17 4.5737934e-11 2.6778274e-11
1.5382424e-20 1.6617183e-18 7.187128e-15 2.905397e-10 2.2114269e-11 4.1763874e-15 4.834926e-15 4.435743e-17
7.580929e-11 8.246936e-20 3.033227e-12 0.0 1.0582217e-10 8.8726554e-11 7.2825356e-13 6.422091e-11
0.0 5.658572e-12 1.5002605e-17 1.3159741e-10 5.4326366e-11 4.1999745e-16 0.0 0.0
00000000: b63e 842a a562 703b 0b52 2b33 b033 af2b
00000010: e845 ad3a d1ab 702f 9e12 762b 6da7 8a3a
00000020: cc73 8724 0000 0000 1ef5 e131 12c2 3522
00000030: def9 903a 16e8 cf34 80aa fd31 0583 5835
00000040: 8b97 f131 535e 753a 29b1 a23a f761 0f39
00000050: 1bb9 1138 65a7 243b c8bd 8f3a 5025 373b
00000060: 11bd 612d 8425 c339 ce82 da2c 96b4 0b3b
00000070: a85f d83a a7e1 b030 d2af fa3a 0a21 562b
00000080: 4c14 f238 9563 042f c5be 113b f348 7528
00000090: 84bf 8a39 dba6 da28 213a 4534 9160 7a3a
000000a0: 68e9 3126 2378 2533 709b 8e2c 6fb3 743a
000000b0: ac60 033b 0b13 9028 6812 8f37 c5e1 6539
000000c0: c60e 393b 36f5 7e3a f3e2 8c2a 508d 9b3a
000000d0: e43a e339 155b 7c39 ec2a e635 02b8 d23a
000000e0: 0000 0000 ef71 9d3a 03bf 4b29 c2ae 803a
000000f0: 5674 823a f917 bd3a 4bdb 0d38 751c 4024
00000100: a9db 8626 1cb0 8939 5da1 9b29 42cf 2a29
00000110: c835 2a3c bb25 9c3a 8ecc 7030 91dc d439
00000120: a5d8 7321 7c11 ca20 d013 e332 0000 0000
00000130: 9413 5a3c a4df b635 1967 a72e 9e84 5e38
00000140: 6f87 c933 692c 5b37 e159 d638 7643 9637
00000150: da08 1836 f8f4 9138 2d68 283c 39e1 a139
00000160: b751 0d32 5256 2135 b513 e826 e1dd a238
00000170: 23a4 863b 68fd c829 0705 cd3b 011a 3229
00000180: 988c 6a3c bd81 d333 15c6 1539 3b4c dd27
00000190: 72e2 ff3b e7d3 cd25 becd 9339 4c7e 4a3a
000001a0: 0000 0000 0863 bf33 96d3 b030 95aa 7939
000001b0: a3c6 8a3b f2ce 1024 b8d5 0a37 910f c836
000001c0: f149 8039 be3f 9136 2725 3229 7110 8c39
000001d0: e0df 243a f6a2 373a 8b3c 1c35 7669 0a3a
000001e0: fb2f 9726 d6f5 cc38 6fc8 752e 9e3e 483b
000001f0: 844d fd3c 17c6 6e37 8904 8135 0000 0000
00000200: 92fe 8225 2a5a 682c cd1f 7328 cc16 c729
00000210: de21 b52f caa6 372e 8d26 0f2c 8b6a 812e
00000220: cdfa 8624 7e92 3620 e771 8927 622a 1c20
00000230: c786 912f 9be1 8b2c 501c 2c25 e06f 5f2f
00000240: e125 bd2b e293 b829 1c53 5a2c fb06 212d
00000250: 108d c629 cd43 fa2b feb0 982f b6d8 a42d
00000260: 893f 1026 99ca e42b 95dd 0528 27e8 322b
00000270: 5ae0 dc28 d9fc 9f29 1fd8 982e d546 7a24
00000280: 0379 9d2e e05b 882c 687e cb2c 0b3d 7225
00000290: 35c0 232f eebd 9025 c74e 952c 2f45 d12d
000002a0: 97db 8522 1cd3 a526 8dc4 4f2e ad4b 032e
000002b0: 4dbc fb2a de03 7326 97e3 1b2e 6654 722d
000002c0: 39dc 682c d361 8826 e855 a329 7f04 4622
000002d0: dce8 382e 3469 242f 1429 a02c 0d73 342e
000002e0: 0000 0000 e167 042c d55a 6728 2b39 052f
000002f0: 6e48 0a2f f98f 9f29 38ec 8825 4603 2023
00000300: dea0 c821 f8da c42e 9066 d722 f5f4 3728
00000310: 6683 862d d428 1328 76d0 8227 868f 3a2f
00000320: 4c0f 8c1f 0000 0000 7189 6c25 0000 0000
00000330: 3b14 cf25 b326 8228 8e1b 3421 3ced 0e2d
00000340: 0000 0000 97a0 8c28 51f5 062f f73c 1528
00000350: 4491 8b22 0000 0000 dca6 972e af5f ba2f
00000360: 23b2 9a23 9305 432a 8276 9128 056a 1b2a
00000370: 9aff 2c2b d406 d92c ac7b ec24 0000 0000
00000380: 59bd 6b2e 1436 f026 20d4 0e2f 1e03 0326
00000390: 0b6c a22d 4f97 9224 5628 492e 508b eb2d
000003a0: 6b48 911e f139 f521 c778 0128 d4b9 9f2f
000003b0: e884 c22d 6078 9627 5232 ae27 0390 4c24
000003c0: d6b4 a62e abb9 c21f c371 552c 0000 0000
000003d0: 96b4 e82e 9c1c c32e 33fc 4c2b 2939 8d2e
000003e0: 0000 0000 e317 c72c e65f 8a23 61b1 102f
000003f0: 0dee 6e2e af1c f225 0000 0000 0000 0000

exp_avg f4 [64, 64]
6e-45 6e-45 -6e-45 -6e-45 6e-45 6e-45 6e-45 6e-45
6e-45 0.0 -6e-45 -6e-45 6e-45 6e-45 -6e-45 6e-45
-6e-45 6e-45 6e-45 6e-45 6e-45 6e-45 6e-45 6e-45
-6e-45 6e-45 -6e-45 6e-45 6e-45 -6e-45 6e-45 -6e-45
6e-45 -6e-45 6e-45 -6e-45 6e-45 -6e-45 6e-45 6e-45
6e-45 -6e-45 6e-45 6e-45 6e-45 -6e-45 6e-45 6e-45
6e-45 6e-45 6e-45 6e-45 6e-45 6e-45 6e-45 6e-45
0.0 6e-45 -6e-45 6e-45 6e-45 6e-45 6e-45 6e-45
6e-45 6e-45 6e-45 6e-45 3.0881412e-05 1.3205344e-05 6e-45 2.1296549e-07
6e-45 6e-45 -6e-45 0.0 3.1961332e-05 -6e-45 -6e-45 -6e-45
-6e-45 -6e-45 6e-45 6e-45 -6e-45 6e-45 2.8909219e-05 -6e-45
-6e-45 6e-45 -6e-45 6e-45 1.2176281e-05 -6e-45 1.5148273e-05 6e-45
2.6522226e-05 -6e-45 6e-45 -6e-45 1.4381893e-05 6e-45 -6e-45 9.219276e-06
0.0 6e-45 6e-45 6e-45 5.1494444e-06 6e-45 -6e-45 6e-45
6e-45 6e-45 6e-45 -4.341588e-27 1.4071912e-05 1.4689646e-06 6e-45 -2.7210435e-06
6e-45 6e-45 6e-45 -1.159019e-07 4.3975997e-05 6e-45 -6e-45 0.0
-6e-45 6e-45 6e-45 -6e-45 6e-45 6e-45 6e-45 6e-45
6e-45 6e-45 6e-45 -6e-45 6e-45 -6e-45 6e-45 6e-45
6e-45 6e-45 6e-45 6e-45 -6e-45 6e-45 6e-45 -6e-45
6e-45 6e-45 -6e-45 6e-45 -6e-45 6e-45 6e-45 6e-45
6e-45 6e-45 6e-45 -6e-45 6e-45 6e-45 -6e-45 6e-45
6e-45 -6e-45 -6e-45 6e-45 6e-45 6e-45 -6e-45 6e-45
6e-45 6e-45 6e-45 6e-45 6e-45 6e-45 6e-45 6e-45
0.0 6e-45 -6e-45 6e-45 6e-45 -6e-45 6e-45 6e-45
6e-45 6e-45 6e-45 -6e-45 6e-45 6e-45 6e-45 6e-45
6e-45 0.0 -6e-45 0.0 6e-45 6e-45 6e-45 6e-45
0.0 -6e-45 6e-45 6e-45 6e-45 0.0 6e-45 6e-45
6e-45 -6e-45 -6e-45 6e-45 6e-45 6e-45 6e-45 0.0
6e-45 6e-45 6e-45 -6e-45 6e-45 6e-45 6e-45 6e-45
6e-45 6e-45 -6e-45 6e-45 6e-45 -6e-45 -6e-45 6e-45
6e-45 6e-45 6e-45 0.0 6e-45 6e-45 6e-45 6e-45
0.0 6e-45 6e-45 6e-45 6e-45 -6e-45 0.0 0.0
00000000: 0400 0000 0400 0000 0400 0080 0400 0080
00000010: 0400 0000 0400 0000 0400 0000 0400 0000
00000020: 0400 0000 0000 0000 0400 0080 0400 0080
00000030: 0400 0000 0400 0000 0400 0080 0400 0000
00000040: 0400 0080 0400 0000 0400 0000 0400 0000
00000050: 0400 0000 0400 0000 0400 0000 0400 0000
00000060: 0400 0080 0400 0000 0400 0080 0400 0000
00000070: 0400 0000 0400 0080 0400 0000 0400 0080
00000080: 0400 0000 0400 0080 0400 0000 0400 0080
00000090: 0400 0000 0400 0080 0400 0000 0400 0000
000000a0: 0400 0000 0400 0080 0400 0000 0400 0000
000000b0: 0400 0000 0400 0080 0400 0000 0400 0000
000000c0: 0400 0000 0400 0000 0400 0000 0400 0000
000000d0: 0400 0000 0400 0000 0400 0000 0400 0000
000000e0: 0000 0000 0400 0000 0400 0080 0400 0000
000000f0: 0400 0000 0400 0000 0400 0000 0400 0000
00000100: 0400 0000 0400 0000 0400 0000 0400 0000
00000110: aa86 0138 858c 5d37 0400 0000 82ab 6434
00000120: 0400 0000 0400 0000 0400 0080 0000 0000
00000130: 380e 0638 0400 0080 0400 0080 0400 0080
00000140: 0400 0080 0400 0080 0400 0000 0400 0000
00000150: 0400 0080 0400 0000 1382 f237 0400 0080
00000160: 0400 0080 0400 0000 0400 0080 0400 0000
00000170: bb48 4c37 0400 0080 5625 7e37 0400 0000
00000180: 0c7c de37 0400 0080 0400 0000 0400 0080
00000190: c349 7137 0400 0000 0400 0080 7dac 1a37
000001a0: 0000 0000 0400 0000 0400 0000 0400 0000
000001b0: 64c9 ac36 0400 0000 0400 0080 0400 0000
000001c0: 0400 0000 0400 0000 0400 0000 effc ab93
000001d0: 6716 6c37 3d29 c535 0400 0000 2c9b 36b6
000001e0: 0400 0000 0400 0000 0400 0000 bee5 f8b3
000001f0: de72 3838 0400 0000 0400 0080 0000 0000
00000200: 0400 0080 0400 0000 0400 0000 0400 0080
00000210: 0400 0000 0400 0000 0400 0000 0400 0000
00000220: 0400 0000 0400 0000 0400 0000 0400 0080
00000230: 0400 0000 0400 0080 0400 0000 0400 0000
00000240: 0400 0000 0400 0000 0400 0000 0400 0000
00000250: 0400 0080 0400 0000 0400 0000 0400 0080
00000260: 0400 0000 0400 0000 0400 0080 0400 0000
00000270: 0400 0080 0400 0000 0400 0000 0400 0000
00000280: 0400 0000 0400 0000 0400 0000 0400 0080
00000290: 0400 0000 0400 0000 0400 0080 0400 0000
000002a0: 0400 0000 0400 0080 0400 0080 0400 0000
000002b0: 0400 0000 0400 0000 0400 0080 0400 0000
000002c0: 0400 0000 0400 0000 0400 0000 0400 0000
000002d0: 0400 0000 0400 0000 0400 0000 0400 0000
000002e0: 0000 0000 0400 0000 0400 0080 0400 0000
000002f0: 0400 0000 0400 0080 0400 0000 0400 0000
00000300: 0400 0000 0400 0000 0400 0000 0400 0080
00000310: 0400 0000 0400 0000 0400 0000 0400 0000
00000320: 0400 0000 0000 0000 0400 0080 0000 0000
00000330: 0400 0000 0400 0000 0400 0000 0400 0000
00000340: 0000 0000 0400 0080 0400 0000 0400 0000
00000350: 0400 0000 0000 0000 0400 0000 0400 0000
00000360: 0400 0000 0400 0080 0400 0080 0400 0000
00000370: 0400 0000 0400 0000 0400 0000 0000 0000
00000380: 0400 0000 0400 0000 0400 0000 0400 0080
00000390: 0400 0000 0400 0000 0400 0000 0400 0000
000003a0: 0400 0000 0400 0000 0400 0080 0400 0000
000003b0: 0400 0000 0400 0080 0400 0080 0400 0000
000003c0: 0400 0000 0400 0000 0400 0000 0000 0000
000003d0: 0400 0000 0400 0000 0400 0000 0400 0000
000003e0: 0000 0000 0400 0000 0400 0000 0400 0000
000003f0: 0400 0000 0400 0080 0000 0000 0000 0000

exp_avg_sq f4 [64]
0.001412905 0.0047825784 6.122517e-10 1.4630258e-10 1.615375e-05 0.0034674886 7.5932275e-14 1.8260386e-07
0.000461575 8.8567376e-11 1.5749411e-13 0.02086429 0.89530176 8.2390574e-07 2.5884781e-14 1.0848049e-05
0.8899597 1.269053e-05 2.3565249e-11 0.4588891 9.612641e-10 0.0735376 0.0005621688 0.395277
1.5713141e-09 6.0968264e-10 1.8303259e-10 0.36747822 3.934241e-10 2.3154907e-08 0.004041202 1.9364534e-13
1.6026403e-12 8.452623e-12 3.76863e-09 0.00034589227 0.0008328064 0.000103465434 0.001644092 5.776653e-11
1.3223959e-07 1.1143474e-15 2.6898672e-07 1.2625466e-12 6.240561e-05 1.2506802e-05 0.0052177757 0.0008873925
1.3816524e-10 3.2753286e-07 0.00043780592 0.0027237183 5.4061766e-06 0.0019189426 9.931055e-07 1.4363078e-13
4.1863023e-11 2.0919215e-14 0.0003304447 0.004749058 0.0007867246 0.00023034916 6.494951e-12 0.015281433
00000000: 3a31 b93a 2db7 9c3b 624b 2830 84dc 202f
00000010: ea81 8737 ce3e 633b fafb aa29 c411 4434
00000020: 8cff f139 00c3 c22e 9652 312a 96eb aa3c
00000030: 7f32 653f 5f2a 5d35 3e26 e928 0400 3637
00000040: 66d4 633f 69e9 5437 3948 cf2d 83f3 ea3e
00000050: 791d 8430 e29a 963d 825e 133a bf61 ca3e
00000060: b3f5 d730 9a96 2730 183f 492f 1b26 bc3e
00000070: 8549 d82f 2ee6 c632 0f6c 843b 7806 5a2a
00000080: 348d e12b 3bb3 142d 387d 8131 e058 b539
00000090: b150 5a3a 95fb d838 937e d73a 550f 7e2e
000000a0: befd 0d34 2a98 a026 4169 9034 09b0 b12b
000000b0: c2df 8238 4ed4 5137 e0f9 aa3b e79f 683a
000000c0: 0fea 172f c6d7 af34 5189 e539 6980 323b
000000d0: b466 b536 0785 fb3a d84a 8535 c1b6 212a
000000e0: 931d 382e 6d6c bc28 893f ad39 fc9d 9b3b
000000f0: 323c 4e3a e289 7139 5185 e42c fa5e 7a3c

exp_avg f4 [64]
6e-45 2.790533e-05 6e-45 6e-45 6e-45 3.9768078e-05 6e-45 6e-45
-1.1564249e-05 6e-45 6e-45 0.0031869 0.05985488 6e-45 6e-45 6e-45
0.2011144 6e-45 6e-45 0.014265273 6e-45 0.005645359 6.657478e-20 0.055220407
6e-45 -6e-45 6e-45 -0.06830756 6e-45 6e-45 -1.6171634e-05 6e-45
6e-45 6e-45 6e-45 6e-45 -5.845313e-21 3.3801382e-20 6e-45 6e-45
-6e-45 6e-45 6e-45 -6e-45 6e-45 6e-45 -3.144662e-05 2.0029761e-12
6e-45 6e-45 -6.626139e-20 4.1417534e-05 6e-45 3.2306983e-12 6e-45 6e-45
6e-45 6e-45 6e-45 1.4351746e-11 -4.4797585e-20 6e-45 -6e-45 -0.00014232566
00000000: 0400 0000 3d16 ea37 0400 0000 0400 0000
00000010: 0400 0000 a6cc 2638 0400 0000 0400 0000
00000020: 1204 42b7 0400 0000 0400 0000 4fdb 503b
00000030: 642a 753d 0400 0000 0400 0000 0400 0000
00000040: eff0 4d3e 0400 0000 0400 0000 e4b8 693c
00000050: 0400 0000 b4fc b83b fc31 9d1f cb2e 623d
00000060: 0400 0000 0400 0080 0400 0000 d6e4 8bbd
00000070: 0400 0000 0400 0000 52a8 87b7 0400 0000
00000080: 0400 0000 0400 0000 0400 0000 0400 0000
00000090: 66d4 dc9d 5d9f 1f1f 0400 0000 0400 0000
000000a0: 0400 0080 0400 0000 0400 0000 0400 0080
000000b0: 0400 0000 0400 0000 8de5 03b8 69f2 0c2c
000000c0: 0400 0000 0400 0000 8d74 9c9f bdb7 2d38
000000d0: 0400 0000 1657 632c 0400 0000 0400 0000
000000e0: 0400 0000 0400 0000 0400 0000 857a 7c2d
000000f0: f58c 539f 0400 0000 0400 0080 413d 15b9

exp_avg_sq f4 [64, 64]
7.75526e-06 2.533733e-07 6.8401697e-15 4.1742946e-14 1.4536232e-08 1.6699805e-10 0.0 0.0
3.7877577e-09 3.3728968e-18 6.4756914e-18 2.8067202e-06 0.19136874 1.459123e-08 0.0 7.641151e-14
0.0076237596 2.149926e-12 7.9914326e-14 0.0034013158 7.32094e-19 0.00021102758 6.1236033e-10 0.0074089468
4.0264368e-15 0.0 0.0 0.14241281 0.0 4.6024366e-13 2.2384365e-09 0.0
0.0 7.063648e-15 6.467395e-12 1.0927474e-17 1.2195648e-15 4.4111918e-08 6.798211e-10 2.3912758e-14
9.340967e-15 0.0 0.0 1.7476212e-14 5.1494187e-08 0.0 1.5675125e-08 1.263848e-10
4.5204396e-22 1.6765933e-10 5.11807e-08 7.333892e-07 1.02840063e-16 5.951922e-15 3.4230818e-17 2.8816937e-16
0.0 6.4083908e-21 6.2443764e-06 3.8348328e-11 2.2336688e-09 1.4135645e-07 8.4946294e-17 0.0
0.002047994 0.006089542 5.2980485e-17 0.0 5.8473806e-06 0.003019903 0.0 6.758461e-11
0.0002790519 2.8426324e-14 4.9271497e-18 0.026391486 17.128458 8.1875237e-07 3.7906796e-21 3.11119e-07
1.9970951 9.808947e-09 2.88907e-14 0.6747098 2.2314206e-15 0.15040171 0.0021790804 1.9148839
3.3981044e-14 0.0 0.0 9.173493 0.0 8.9300665e-09 0.0029546125 0.0
0.0 9.019373e-15 7.7321965e-10 0.00024551482 0.0014835738 0.00015297007 8.577004e-05 4.5995113e-15
3.284242e-11 0.0 2.7672474e-11 1.8108681e-17 8.661703e-05 3.813524e-08 0.0048227464 0.0031587337
7.050572e-23 2.2916124e-07 9.053859e-05 0.0018842787 3.6749283e-15 0.009099201 3.0899944e-08 7.6480415e-20
0.0 0.0 0.00033253487 0.0063903555 0.002871237 0.00055021554 1.3961642e-15 0.007067413
7.400058e-06 4.1512413e-07 8.8265766e-13 2.953428e-17 1.1317731e-07 1.1003718e-08 1.947125e-18 0.0
4.592893e-10 2.6639893e-15 2.5532855e-15 3.670347e-09 2.7796483e-05 6.526939e-08 1.0914017e-17 1.4148542e-12
2.4710405e-05 1.5287938e-09 3.688005e-15 2.613229e-06 2.8254376e-13 2.0350099e-05 4.7966253e-09 7.3412068e-09
2.117563e-12 0.0 7.4500154e-18 4.586901e-05 0.0 1.6517117e-16 3.595838e-08 3.2983568e-18
2.109287e-20 8.3606186e-16 5.6406702e-15 3.3843017e-10 3.8665156e-09 7.157155e-07 3.4431807e-08 1.7224901e-14
8.1589824e-16 0.0 1.0644761e-11 2.9566064e-15 8.3912676e-07 5.518211e-15 9.879923e-08 6.5098105e-09
6.3274966e-13 1.7020534e-11 7.2211446e-09 5.824298e-07 4.125282e-14 4.6559795e-10 2.7239772e-10 5.2334125e-15
2.5809172e-19 8.054023e-18 1.3656142e-05 2.2763464e-08 2.3433077e-07 2.1340962e-07 7.228724e-15 8.5428976e-11
4.0841305e-06 6.1282594e-06 3.1918332e-13 0.0 8.336677e-08 1.3030142e-06 0.0 0.0
7.007798e-07 6.4845845e-17 9.155735e-19 1.8615874e-07 5.9321883e-06 1.5338244e-07 0.0 3.391204e-08
1.7478098e-05 1.2741572e-09 3.075855e-17 8.5968145e-07 5.3662138e-15 5.4947344e-05 3.756776e-07 2.5549791e-06
1.2309482e-15 0.0 0.0 2.5890413e-06 0.0 5.0736157e-09 1.1462879e-06 0.0
1.7740256e-22 8.594372e-17 3.232618e-11 6.733329e-07 5.6606086e-07 5.0183803e-06 4.170833e-06 1.3015132e-17
3.5360995e-10 0.0 1.6197463e-16 8.0109225e-18 3.6223228e-06 2.0871006e-07 2.8230777e-06 2.3452054e-07
1.0105499e-15 2.632247e-09 5.764011e-07 3.7983128e-07 8.213799e-09 1.9666288e-06 1.6558922e-12 1.0665781e-17
0.0 0.0 3.439231e-05 1.6580856e-06 3.3260503e-06 9.929753e-07 7.136513e-18 0.0
00000000: 971c 0237 5c07 8834 6e71 f627 57fe 3b29
00000010: 06bb 7932 c69d 372f 0000 0000 0000 0000
00000020: 7825 8231 38e0 7822 2de9 ee22 165b 3c36
00000030: 2bf6 433e e8ac 7a32 0000 0000 3d10 ac29
00000040: bbd0 f93b a049 172c 79f3 b329 9ce8 5e3b
00000050: 7513 5821 4947 5d39 0753 2830 c0c6 f23b
00000060: 5311 9127 0000 0000 0000 0000 aad4 113e
00000070: 0000 0000 0d8c 012b fed2 1931 0000 0000
00000080: 0000 0000 a77e fe27 1e8d e32c 8993 4923
00000090: 00c2 af26 9175 3d33 28de 3a30 1163 d728
000000a0: 9b45 2828 0000 0000 0000 0000 6769 9d28
000000b0: 752a 5d33 0000 0000 f7a5 8632 29f6 0a2f
000000c0: 359f 081c e857 382f c6d1 5b33 1fde 4435
000000d0: 0f22 ed24 ca70 d627 9edc 1d24 4b1e a625
000000e0: 0000 0000 271a f21d c986 d136 61a8 282e
000000f0: 1e7f 1931 c4c7 1734 71df c324 0000 0000
00000100: a337 063b c88a c73b 5154 7424 0000 0000
00000110: 9e34 c436 91e9 453b 0000 0000 c19e 942e
00000120: b64d 9239 5205 0029 9dc7 b522 f532 d83c
00000130: 1507 8941 3cc8 5b35 3435 8f1d df07 a734
00000140: d0a0 ff3f 3584 2832 b61c 0229 c8b9 2c3f
00000150: 72ca 2027 e802 1a3e e7ce 0e3b ea1a f53f
00000160: 7a09 1929 0000 0000 0000 0000 a1c6 1241
00000170: 0000 0000 d96a 1932 2ca2 413b 0000 0000
00000180: 0000 0000 847a 2228 7f8a 5430 71b8 8039
00000190: 7a74 c23a 9766 2039 71df b338 01b7 a527
000001a0: 4771 102e 0000 0000 df68 f32d ea05 a723
000001b0: 2aa6 b538 24ca 2333 2108 9e3b c202 4f3b
000001c0: ed78 aa1a 5d0f 7634 89df bd38 e7f9 f63a
000001d0: 3b67 8427 d114 153c d9b6 0433 9395 b41f
000001e0: 0000 0000 0000 0000 1358 ae39 3066 d13b
000001f0: 5d2b 3c3b 573c 103a 5e35 c926 c295 e73b
00000200: 044e f836 3ade de34 3072 782b ec33 0824
00000210: e20b f333 dd0a 3d32 27ac 0f22 0000 0000
00000220: 397f fc2f eef5 3f27 cefb 3727 6d39 7c31
00000230: 7e2c e937 3a2a 8c33 fd53 4923 7f1f c72b
00000240: 3149 cf37 a61d d230 d8df 8427 ef5e 2f36
00000250: d90e 9f2a 81b5 aa37 90cf a431 f03d fc31
00000260: a002 152c 0000 0000 b46d 0923 7963 4038
00000270: 0000 0000 ed6d 3e25 a870 1a33 3360 7322
00000280: 6e37 c71e 7afa 7026 003a cb27 d00d ba2f
00000290: 3bda 8431 981f 4035 2ce2 1333 eb25 9b28
000002a0: aa2a 6b26 0000 0000 be43 3b2d c30b 5527
000002b0: 5a40 6135 83d0 c627 732b d433 e6ac df31
000002c0: 6b1a 322b d6b6 952d dc1d f831 4558 1c35
000002d0: 43c9 3929 16f7 ff2f 92c0 952f b68d bc27
000002e0: b859 9820 0c92 1423 af1c 6537 6389 c332
000002f0: 5a9c 7b34 9725 6534 9b38 0228 3ddc bb2e
00000300: 6a0a 8936 59a1 cd36 2aaf b32a 0000 0000
00000310: 5e07 b333 3ae3 ae35 0000 0000 0000 0000
00000320: 391d 3c35 3b86 9524 641d 8721 ede2 4734
00000330: 1c0d c736 72b1 2434 0000 0000 afa6 1133
00000340: ee9d 9237 6c1e af30 49d9 0d24 dcc4 6635
00000350: 9656 c127 4377 6638 bcb0 c934 3576 2b36
00000360: f965 b126 0000 0000 0000 0000 64bf 2d36
00000370: 0000 0000 ff53 ae31 27da 9935 0000 0000
00000380: 6f77 561b 382c c624 0b2c 0e2e 16bf 3435
00000390: 68f3 1735 8f63 a836 2ff3 8b36 3916 7023
000003a0: 2d66 c22f 0000 0000 79be 3a25 83c6 1323
000003b0: 0817 7336 c919 6034 1b74 3d36 84d0 7b34
000003c0: b6a2 9126 fbe2 3431 fbb9 1a35 9deb cb34
000003d0: ac1c 0d32 6dfa 0336 ce0b e92b babf 4423
000003e0: 0000 0000 0000 0000 7640 1038 638b de35
000003f0: 1c35 5f36 5f46 8535 3ba5 0323 0000 0000

exp_avg f4 [64, 64]
-6e-45 -6e-45 6e-45 6e-45 -6e-45 6e-45 0.0 0.0
-6e-45 -6e-45 6e-45 6e-45 6e-45 -6e-45 0.0 6e-45
6e-45 6e-45 6e-45 6e-45 6e-45 -6e-45 6e-45 6e-45
6e-45 0.0 0.0 6e-45 0.0 -6e-45 6e-45 0.0
0.0 6e-45 -6e-45 6e-45 6e-45 6e-45 -6e-45 6e-45
6e-45 0.0 0.0 6e-45 6e-45 0.0 6e-45 6e-45
-6e-45 6e-45 6e-45 -6e-45 -6e-45 6e-45 6e-45 6e-45
0.0 -6e-45 6e-45 6e-45 6e-45 -6e-45 -6e-45 0.0
-6e-45 5.4010093e-06 6e-45 0.0 -6e-45 -1.0041194e-05 0.0 6e-45
-1.8747209e-06 6e-45 6e-45 -0.0037796171 0.38007212 -6e-45 6e-45 6e-45
0.12100672 -6e-45 6e-45 0.030079076 6e-45 -0.0010682778 -3.5597423e-21 0.07561653
6e-45 0.0 0.0 0.23964739 0.0 -6e-45 -8.272664e-08 0.0
0.0 6e-45 -6e-45 6e-45 -8.151026e-21 -4.7544334e-21 -6e-45 6e-45
-6e-45 0.0 -6e-45 6e-45 -6e-45 6e-45 -1.7345887e-05 2.0058032e-14
-6e-45 -6e-45 -1.110399e-21 -2.9666418e-07 6e-45 -2.671717e-13 -6e-45 6e-45
0.0 0.0 -6e-45 3.7487496e-13 -6.9645705e-22 -6e-45 6e-45 4.4407066e-06
6e-45 6e-45 -6e-45 6e-45 6e-45 -6e-45 6e-45 0.0
-6e-45 6e-45 6e-45 -6e-45 6e-45 6e-45 6e-45 -6e-45
6e-45 -6e-45 6e-45 6e-45 -6e-45 -6e-45 6e-45 6e-45
6e-45 0.0 6e-45 6e-45 0.0 6e-45 6e-45 6e-45
6e-45 6e-45 6e-45 6e-45 6e-45 6e-45 -6e-45 -6e-45
6e-45 0.0 6e-45 6e-45 6e-45 6e-45 6e-45 -6e-45
-6e-45 -6e-45 6e-45 6e-45 -6e-45 6e-45 6e-45 6e-45
6e-45 -6e-45 6e-45 6e-45 6e-45 6e-45 6e-45 6e-45
-6e-45 -6e-45 -6e-45 0.0 6e-45 6e-45 0.0 0.0
-6e-45 6e-45 6e-45 6e-45 -6e-45 -6e-45 0.0 -6e-45
-6e-45 6e-45 6e-45 6e-45 6e-45 -6e-45 6e-45 -6e-45
6e-45 0.0 0.0 -6e-45 0.0 6e-45 6e-45 0.0
-6e-45 6e-45 6e-45 6e-45 6e-45 6e-45 -6e-45 6e-45
-6e-45 0.0 6e-45 6e-45 6e-45 -6e-45 -6e-45 6e-45
6e-45 6e-45 -6e-45 6e-45 -6e-45 -6e-45 6e-45 6e-45
0.0 0.0 -6e-45 -6e-45 -6e-45 6e-45 6e-45 0.0
00000000: 0400 0080 0400 0080 0400 0000 0400 0000
00000010: 0400 0080 0400 0000 0000 0000 0000 0000
00000020: 0400 0080 0400 0080 0400 0000 0400 0000
00000030: 0400 0000 0400 0080 0000 0000 0400 0000
00000040: 0400 0000 0400 0000 0400 0000 0400 0000
00000050: 0400 0000 0400 0080 0400 0000 0400 0000
00000060: 0400 0000 0000 0000 0000 0000 0400 0000
00000070: 0000 0000 0400 0080 0400 0000 0000 0000
00000080: 0000 0000 0400 0000 0400 0080 0400 0000
00000090: 0400 0000 0400 0000 0400 0080 0400 0000
000000a0: 0400 0000 0000 0000 0000 0000 0400 0000
000000b0: 0400 0000 0000 0000 0400 0000 0400 0000
000000c0: 0400 0080 0400 0000 0400 0000 0400 0080
000000d0: 0400 0080 0400 0000 0400 0000 0400 0000
000000e0: 0000 0000 0400 0080 0400 0000 0400 0000
000000f0: 0400 0000 0400 0080 0400 0080 0000 0000
00000100: 0400 0080 513a b536 0400 0000 0000 0000
00000110: 0400 0080 9a76 28b7 0000 0000 0400 0000
00000120: eb9e fbb5 0400 0000 0400 0000 74b3 77bb
00000130: d098 c23e 0400 0080 0400 0000 0400 0000
00000140: 5fd2 f73d 0400 0080 0400 0000 6568 f63c
00000150: 0400 0000 7405 8cba b77b 869d d7dc 9a3d
00000160: 0400 0000 0000 0000 0000 0000 2066 753e
00000170: 0000 0000 0400 0080 74a7 b1b3 0000 0000
00000180: 0000 0000 0400 0000 0400 0080 0400 0000
00000190: f1f7 199e 0f9e b39d 0400 0080 0400 0000
000001a0: 0400 0080 0000 0000 0400 0080 0400 0000
000001b0: 0400 0080 0400 0000 0282 91b7 acaa b428
000001c0: 0400 0080 0400 0080 7bcc a79c 3745 9fb4
000001d0: 0400 0000 8067 96aa 0400 0080 0400 0000
000001e0: 0000 0000 0000 0000 0400 0080 2d09 d32a
000001f0: c17d 529c 0400 0080 0400 0000 6101 9536
00000200: 0400 0000 0400 0000 0400 0080 0400 0000
00000210: 0400 0000 0400 0080 0400 0000 0000 0000
00000220: 0400 0080 0400 0000 0400 0000 0400 0080
00000230: 0400 0000 0400 0000 0400 0000 0400 0080
00000240: 0400 0000 0400 0080 0400 0000 0400 0000
00000250: 0400 0080 0400 0080 0400 0000 0400 0000
00000260: 0400 0000 0000 0000 0400 0000 0400 0000
00000270: 0000 0000 0400 0000 0400 0000 0400 0000
00000280: 0400 0000 0400 0000 0400 0000 0400 0000
00000290: 0400 0000 0400 0000 0400 0080 0400 0080
000002a0: 0400 0000 0000 0000 0400 0000 0400 0000
000002b0: 0400 0000 0400 0000 0400 0000 0400 0080
000002c0: 0400 0080 0400 0080 0400 0000 0400 0000
000002d0: 0400 0080 0400 0000 0400 0000 0400 0000
000002e0: 0400 0000 0400 0080 0400 0000 0400 0000
000002f0: 0400 0000 0400 0000 0400 0000 0400 0000
00000300: 0400 0080 0400 0080 0400 0080 0000 0000
00000310: 0400 0000 0400 0000 0000 0000 0000 0000
00000320: 0400 0080 0400 0000 0400 0000 0400 0000
00000330: 0400 0080 0400 0080 0000 0000 0400 0080
00000340: 0400 0080 0400 0000 0400 0000 0400 0000
00000350: 0400 0000 0400 0080 0400 0000 0400 0080
00000360: 0400 0000 0000 0000 0000 0000 0400 0080
00000370: 0000 0000 0400 0000 0400 0000 0000 0000
00000380: 0400 0080 0400 0000 0400 0000 0400 0000
00000390: 0400 0000 0400 0000 0400 0080 0400 0000
000003a0: 0400 0080 0000 0000 0400 0000 0400 0000
000003b0: 0400 0000 0400 0080 0400 0080 0400 0000
000003c0: 0400 0000 0400 0000 0400 0080 0400 0000
000003d0: 0400 0080 0400 0080 0400 0000 0400 0000
000003e0: 0000 0000 0000 0000 0400 0080 0400 0080
000003f0: 0400 0080 0400 0000 0400 0000 0000 0000

exp_avg_sq f4 [64]
0.017623443 1.9880618 1.4033927e-05 1.5359576e-05 0.0015404985 5.928515e-08 0.002179077 0.0
1.6495485 8.349993e-08 4.363208e-08 5.172839e-09 0.00017905458 0.003631333 1.698275e-05 9.560981e-06
1.4477451e-08 8.068373e-05 4.9663966e-05 1.1766229e-05 1.715174e-05 2.0991316 0.0033509636 4.4551587e-05
1.578536e-07 3.3384058e-05 1.5580541e-07 0.060253527 0.00019536423 0.0013637509 1.8898427 1.6467653e-05
9.720873e-08 0.0071954173 1.0410234 6.5813344e-10 0.0018780178 2.9191562e-12 2.2116527e-07 1.0599406
1.5781919e-07 2.0531123 2.2416816e-05 5.009637e-06 3.888484e-06 2.0770512e-06 0.0017697441 3.3622612e-08
1.7880093e-06 1.1100281 0.00014898948 2.4809244e-09 1.37537945e-08 1.5123098 1.1954399e-05 0.437949
0.003963122 2.854799e-05 0.00010358363 0.001606499 2.0870317e-08 1.37921625e-05 8.7876904e-14 4.6227593e-05
00000000: 0a5f 903c cf78 fe3f 4273 6b37 70d8 8037
00000010: 8dea c93a b6a0 7e33 d8ce 0e3b 0000 0000
00000020: 6824 d33f 9250 b333 fb65 3b33 c6bc b131
00000030: 99c0 3b39 a8fb 6d3b 2e76 8e37 1a68 2037
00000040: 81b8 7832 bf34 a938 474e 5038 9267 4537
00000050: 15e1 8f37 2c58 0640 d79b 5b3b e7dc 3a38
00000060: 787e 2934 dc05 0c38 774b 2734 67cc 763d
00000070: b0da 4c39 e3bf b23a 5ee6 f13f 0424 8a37
00000080: 11c1 d033 89c7 eb3b 4140 853f 06e8 3430
00000090: d227 f63a d86a 4d2c 7279 6d34 22ac 873f
000000a0: 0275 2934 3166 0340 bf0b bc37 7418 a836
000000b0: d379 8236 7863 0b36 c2f6 e73a 7468 1033
000000c0: 88fb ef35 6715 8e3f 0f3a 1c39 e27c 2a31
000000d0: d449 6c32 5e93 c13f c18f 4837 da3a e03e
000000e0: 14dd 813b 577a ef37 0a3b d938 2991 d23a
000000f0: 5046 b332 e364 6737 96e1 c529 80e4 4138

exp_avg f4 [64]
6e-45 0.18773599 6e-45 -6e-45 1.7480657e-21 6e-45 6e-45 0.0
0.36297804 6e-45 6e-45 6e-45 6e-45 6e-45 6e-45 6e-45
6e-45 -6e-45 6e-45 6e-45 6e-45 -0.41350305 6e-45 6e-45
6e-45 -6e-45 6e-45 2.5326267e-07 9.484526e-21 3.0099065e-06 0.3645598 6e-45
6e-45 4.6245322e-20 0.18815865 6e-45 -3.3317698e-05 6e-45 6e-45 -0.09311547
6e-45 0.1831469 -6e-45 6e-45 6e-45 6e-45 6e-45 6e-45
6e-45 -0.17771038 6e-45 6e-45 6e-45 -0.06947053 6e-45 -0.2541931
-5.4104003e-06 6e-45 -6e-45 1.1461969e-19 6e-45 6e-45 6e-45 6e-45
00000000: 0400 0000 dd3d 403e 0400 0000 0400 0080
00000010: 8214 041d 0400 0000 0400 0000 0000 0000
00000020: 42d8 b93e 0400 0000 0400 0000 0400 0000
00000030: 0400 0000 0400 0000 0400 0000 0400 0000
00000040: 0400 0000 0400 0080 0400 0000 0400 0000
00000050: 0400 0000 acb6 d3be 0400 0000 0400 0000
00000060: 0400 0000 0400 0080 0400 0000 28f8 8734
00000070: 5a28 331e cdfd 4936 95a7 ba3e 0400 0000
00000080: 0400 0000 2a63 5a1f a9ac 403e 0400 0000
00000090: 9bbe 0bb8 0400 0000 0400 0000 53b3 bebd
000000a0: 0400 0000 dc8a 3b3e 0400 0080 0400 0000
000000b0: 0400 0000 0400 0000 0400 0000 0400 0000
000000c0: 0400 0000 b6f9 35be 0400 0000 0400 0000
000000d0: 0400 0000 9146 8ebd 0400 0000 9925 82be
000000e0: fc8a b5b6 0400 0000 0400 0080 ad51 0720
000000f0: 0400 0000 0400 0000 0400 0000 0400 0000

exp_avg_sq f4 [4, 64]
0.0076600043 21.868898 1.0811872e-06 9.941868e-05 0.0019822614 1.4744327e-09 0.012384375 0.0
8.063268 4.067954e-12 6.834607e-10 1.1107528e-09 0.00025216056 0.01835991 5.7141087e-06 2.5991734e-05
2.0335548e-08 0.0004953662 8.893123e-06 1.2478285e-05 3.0063335e-05 8.505017 0.041269496 2.172153e-05
2.2438716e-08 2.5932311e-05 3.300755e-08 0.07071216 0.0033984755 0.031997725 7.209964 2.9004334e-05
1.2271792e-10 0.0059228973 0.78889567 3.6506276e-10 0.021062493 3.4609642e-12 6.825018e-08 2.2983508
6.3922855e-08 10.850976 0.001828522 6.654572e-06 4.088759e-06 1.2167427e-08 0.0069034896 6.195098e-08
1.1261982e-08 3.0694752 0.0032869447 1.5828702e-10 1.2128655e-10 5.7665854 8.823506e-08 3.1119945
0.03352157 4.4839953e-07 0.00013439762 0.018116578 1.0849516e-08 2.5245176e-06 8.049703e-15 7.0827344e-05
0.0049612937 20.15747 1.4085344e-06 7.776533e-05 0.0023888447 2.6538661e-08 0.007823087 0.0
7.4344597 3.2943984e-10 5.236783e-10 1.2453534e-09 0.00023704441 0.018616887 4.0967996e-05 2.1329482e-05
3.5558312e-09 0.00043047272 1.2842718e-05 5.7906575e-05 2.4910165e-05 7.9212112 0.030517526 2.2008911e-05
2.0907443e-08 2.5047817e-05 2.7108285e-08 0.07531215 0.0034106008 0.022467697 6.5517735 2.398388e-05
7.829703e-09 0.008479986 0.71489775 3.034657e-10 0.014082292 1.9259393e-13 9.715783e-08 2.2449298
6.755295e-08 10.011525 0.0014706001 1.4859913e-05 4.896221e-06 2.582737e-08 0.004495046 7.557799e-08
4.658165e-08 2.8796518 0.0026260416 7.6816456e-11 3.2587053e-10 5.4139276 2.208563e-08 2.89855
0.023240253 5.7622765e-07 0.000120863115 0.013862772 6.8487442e-09 4.1118534e-07 9.544416e-15 4.3711887e-05
0.005992049 20.756973 1.0491968e-06 9.068795e-05 0.002132496 4.0716914e-09 0.010675096 0.0
7.7345266 1.0362823e-09 1.3696421e-09 1.1649671e-09 0.0002351771 0.018182144 6.39418e-06 2.4148805e-05
2.9045966e-08 0.00031903494 8.291545e-06 1.1246527e-05 2.9515104e-05 8.46191 0.03249825 1.1431512e-05
1.125585e-08 2.6921602e-05 3.721661e-08 0.06680789 0.0011315218 0.02816308 6.698043 2.5869283e-05
1.0139354e-09 0.003286541 0.69010866 3.5815273e-10 0.023180492 2.9608648e-13 5.6559877e-08 2.3595085
6.647314e-08 10.345878 0.0012179497 8.872134e-06 3.0303686e-06 1.0102608e-08 0.0063312417 7.725125e-08
2.3976372e-07 3.0819619 0.0021925354 3.940131e-11 7.336337e-10 5.7063985 4.548649e-08 2.994207
0.025671542 6.273268e-07 0.0001315154 0.0073020933 6.6961334e-09 8.1708015e-07 9.0492545e-15 5.4763364e-05
0.0042553055 22.670359 1.1180719e-06 8.6072025e-05 0.0021859969 1.4102174e-08 0.0134908315 0.0
8.708183 2.972824e-11 8.4009194e-10 1.0387025e-09 0.00023381213 0.018908553 4.909251e-05 2.1950464e-05
2.8572908e-09 0.00035401262 1.7802135e-05 4.0366205e-05 2.5884769e-05 9.135454 0.040603 4.998572e-05
2.0692669e-08 5.4775104e-05 3.8167034e-08 0.10156056 0.0022958869 0.03353459 7.5503297 2.4130972e-05
5.257391e-10 0.004014282 0.715557 3.141522e-10 0.02334125 1.7988082e-13 7.123376e-08 2.5190082
5.553969e-08 11.341671 0.0014038763 3.0994672e-06 4.2570664e-06 2.9398471e-08 0.007669484 5.3863996e-08
1.7810374e-08 3.3706074 0.0025027883 2.1603604e-10 3.130127e-10 6.0993233 9.838877e-08 3.0672498
0.03428145 6.200274e-07 0.00012113863 0.012320975 4.7520574e-09 1.386421e-06 8.605665e-15 5.2899803e-05
00000000: c600 fb3b 81f3 ae41 4f1d 9135 ff7e d038
00000010: d4e8 013b fda4 ca30 d5e7 4a3c 0000 0000
00000020: 2503 0141 df20 8f2c 45de 3b30 24a9 9830
00000030: 6b34 8439 8667 963c d2bb bf36 d308 da37
00000040: 58ae ae32 77db 013a ac33 1537 d359 5137
00000050: 8530 fc37 8d14 0841 340a 293d a136 b637
00000060: 42bf c032 3789 d937 2fc4 0d33 89d1 903d
00000070: f5b8 5e3b 0c10 033d 06b8 e640 554e f337
00000080: 06ee 062f dd14 c23b 11f5 493f 04b2 c82f
00000090: 408b ac3c 308b 732c ef90 9233 2e18 1340
000000a0: f645 8933 999d 2d41 04ab ef3a 574a df36
000000b0: 2c32 8936 e908 5132 ab36 e23b e909 8533
000000c0: b87a 4132 4872 4440 c869 573b d609 2e2f
000000d0: 215b 052f de87 b840 bd7b bd33 eb2a 4740
000000e0: ea4d 093d 90bb f034 16ed 0c39 3869 943c
000000f0: ad64 3a32 e26a 2936 b402 1128 2489 9438
00000100: 5992 a23b 8042 a141 e00c bd35 f215 a338
00000110: 2a8e 1c3b 22f7 e332 682c 003c 0000 0000
00000120: 18e7 ed40 891c b52f 96f2 0f30 fa28 ab30
00000130: 208f 7839 7182 983c 0dd5 2b38 b7ec b237
00000140: d85a 7431 12b1 e139 0e77 5737 b6e0 7238
00000150: 2cf6 d037 907a fd40 e4ff f93c c79f b837
00000160: f497 b332 c71d d237 c0db e832 423d 9a3d
00000170: 6384 5f3b 2d0e b83c 21a8 d140 fd30 c937
00000180: 6683 0632 a4ef 0a3c 8a03 373f 00d5 a62f
00000190: 6ab9 663c 6cd7 582a 15a5 d033 eeac 0f40
000001a0: a111 9133 352f 2041 27c1 c03a d74e 7937
000001b0: 384a a436 fdda dd32 2e4b 933b 704d a233
000001c0: 1111 4833 374c 3840 ab19 2c3b d2eb a82e
000001d0: 3326 b32f e53e ad40 d0b6 bd32 d881 3940
000001e0: 5862 be3c 10ae 1a35 e477 fd38 ae20 633c
000001f0: 3152 eb31 e2c0 dc34 daef 2b28 4857 3738
00000200: f358 c43b 480e a641 21d2 8c35 b92f be38
00000210: 59c1 0b3b fae6 8b31 99e6 2e3c 0000 0000
00000220: 3e81 f740 f16c 8e30 ff3d bc30 a31c a030
00000230: df99 7639 b8f2 943c 978d d636 2a93 ca37
00000240: c180 f932 2544 a739 ea1b 0b37 77af 3c37
00000250: 3497 f737 fc63 0741 e31c 053d f8c9 3f37
00000260: c05f 4132 b3d5 e137 18d8 1f33 93d2 883d
00000270: 924f 943a 42b6 e63c 5e56 d640 dd01 d937
00000280: ae5a 8b30 0263 573b f6aa 303f 84e5 c42f
00000290: 04e5 bd3c 8fae a62a 3eec 7233 3002 1740
000002a0: ffbf 8e33 b788 2541 9ca3 9f3a 86d9 1437
000002b0: 565d 4b36 bd8f 2d32 4e76 cf3b 53e5 a533
000002c0: e0b8 8034 dd3e 4540 a4b0 0f3b ee49 2d2e
000002d0: e2a8 4930 d19a b640 ed5c 4333 16a1 3f40
000002e0: 204d d23c 9265 2835 65e7 0939 6646 ef3b
000002f0: d013 e631 5255 5b35 5204 2328 b7b1 6538
00000300: 1770 8b3b e55c b541 a810 9635 9181 b438
00000310: f142 0f3b 0446 7232 a608 5d3c 0000 0000
00000320: b854 0b41 06bf 022e 37ec 6630 18c2 8e30
00000330: 772b 7539 1ce6 9a3c aee8 4d38 4322 b837
00000340: fe59 4431 c59a b939 cb55 9537 e24e 2938
00000350: 1e23 d937 d22a 1241 554f 263d c2a7 5138
00000360: a9bf b132 52be 6538 19ed 2333 fcfe cf3d
00000370: 9776 163b 915b 093d 4d9c f140 de6c ca37
00000380: 9a83 1030 3d8a 833b be2e 373f feb4 ac2f
00000390: 2636 bf3c 1e87 4a2a 2cf9 9833 6e37 2140
000003a0: 898a 6e33 7c77 3541 4602 b83a 7100 5036
000003b0: ecd7 8e36 ec87 fc32 4b50 fb3b 1758 6733
000003c0: 6dfd 9832 08b8 5740 d205 243b bd88 6d2f
000003d0: 9f14 ac2f a82d c340 cc49 d333 d24d 4440
000003e0: b56a 0c3d f56f 2635 cf0b fe38 eadd 493c
000003f0: 8a47 a331 1015 ba35 a006 1b28 bbe0 5d38
